model/1.pth (torch, 26157 bytes, 13 tensors)

rnn.weight_ih_l0 f4 [32, 1]
-0.41676655 0.19833568 0.40796274 -0.11207215 0.35039544 0.1385002 -0.26775637 -0.3378143
0.5233206 -0.38178667 -0.36080498 0.20653291 -0.14529054 -0.37289 0.28827423 -0.35930657
-0.02154939 -0.41323873 0.2187502 0.07978559 -0.4662502 0.33882377 0.49601316 -0.031158514
0.13748795 -0.19385457 -0.09552786 0.36881498 -0.07121523 0.120646045 -0.37064052 -0.4283771
00000000: 6d62 d5be 8218 4b3e 7ee0 d03e 1586 e5bd
00000010: 0867 b33e ffd2 0d3e 5d17 89be fff5 acbe
00000020: 57f8 053f 8b79 c3be 6ebb b8be 5d7d 533e
00000030: 0bc7 14be 70eb bebe ae98 933e 08f7 b7be
00000040: 5988 b0bc 0794 d3be 0d00 603e a166 a33d
00000050: 59b8 eebe 4f7a ad3e 70f5 fd3e 2440 ffbc
00000060: a4c9 0c3e d081 46be 1ca4 c3bd 51d5 bc3e
00000070: 4ad9 91bd 4615 f73d 98c4 bdbe 3e54 dbbe

rnn.weight_hh_l0 f4 [32, 32]
-0.21800955 -0.20313212 -0.41433835 0.30134723 0.58597594 -0.28402212 0.370351 0.10786834
0.29258865 0.25931913 0.19531478 -0.11926954 0.0638883 0.43405145 -0.35494775 -0.09920813
-0.523883 0.44019037 0.4691363 0.5535983 0.23268081 -0.2955024 0.054853007 0.05413619
0.06344491 0.2912639 -0.43059102 -0.2011116 0.18536417 -0.33628675 0.34283262 0.16516286
0.14686137 0.20005089 -0.148429 -0.43971995 0.43013105 0.37076253 -0.0850412 -0.26557788
0.27692166 -0.33159143 -0.14343716 0.16197994 0.26258004 -0.44858712 0.123088665 -0.13253409
-0.032651935 0.049862273 0.20912223 0.11210925 -0.37862992 -0.1635494 -0.25974885 0.23215578
0.053975563 -0.2959182 -0.14447509 0.289689 -0.1460684 0.42772752 0.099799365 0.1534488
-0.28001726 0.49347067 -0.068574466 -0.2852632 -0.2477702 0.397143 -0.39560416 -0.26271075
-0.0026648701 -0.38616362 -0.40744507 0.42042854 -0.14398365 -0.38558736 0.5151934 -0.39406765
0.36992753 -0.28064147 0.036102273 -0.35646316 -0.42199475 0.018371936 -0.3072691 -0.17494377
-0.3254068 -0.53865325 0.15139964 0.13064726 -0.21128833 0.51028967 0.029916912 -0.29601985
-0.13852513 -0.4441718 -0.06795146 0.58468866 0.07877133 -0.6419799 0.4064429 0.43058896
0.049263354 0.5402942 0.51255786 -0.52342546 -0.22836481 0.40301472 -0.61390847 0.13575163
-0.2837338 0.405945 0.360997 0.11047681 0.4285031 0.20593806 0.15651019 -0.14818832
0.23243515 0.04147091 -0.123093404 -0.24696171 0.12100952 -0.6239667 0.030404195 0.16105235
-0.395421 0.16654986 0.09020144 0.045432884 -0.06779272 0.13116483 -0.13747533 -0.007477683
0.1361094 -0.17339467 -0.20612462 0.08418482 -0.08963867 -0.16892329 -0.061592106 -0.028537272
0.14119163 0.12913764 -0.0064632003 -0.31103253 -0.107384495 0.30538127 0.023162903 0.3597276
-0.4840885 -0.073763184 0.2865182 0.13528562 0.10001811 0.09558795 -0.21284793 -0.57773364
0.13704889 0.061657995 -0.048309118 -0.0689364 0.23920012 0.23679584 -0.36606753 -0.14183497
0.1560857 -0.1384484 -0.14617032 0.22819957 0.22830378 -0.08917158 0.31303507 0.17024812
-0.3516774 -0.15888293 0.13660274 -0.12144188 -0.23391151 -0.046026383 -0.37607777 0.09380302
0.21326976 -0.07479804 0.3013772 0.1666625 -0.5171886 0.052835234 -0.12782077 0.09867962
0.09106063 -0.2731085 -0.17039509 0.61319697 0.12145967 -0.3712643 0.5379727 0.43169218
0.02968759 0.6247372 0.38324615 -0.6175351 -0.042063072 0.4917853 -0.5787061 0.097910024
0.06469131 0.25036043 0.0058974843 -0.011439492 0.33838788 0.1057847 0.23154794 0.03845418
0.13691343 0.3094329 -0.0791696 -0.3100626 0.23931983 -0.6009911 0.09680892 0.18691659
0.017706482 -0.1565941 -0.08988326 0.23508756 0.025517644 -0.091193706 0.35474536 0.22474799
-0.49861637 0.32351956 0.08781443 -0.13514075 -0.16859102 0.24017474 -0.061687957 0.009826019
-0.09110382 -0.15260388 -0.096878484 -0.047352083 0.034683637 0.29797307 -0.045325648 0.14748123
-0.10163507 0.25508755 0.0007506071 -0.037706252 0.23448062 -0.020152813 -0.18751034 0.038456958
00000000: e53d 5fbe de01 50be 2824 d4be 2f4a 9a3e
00000010: 8502 163f 596b 91be a59e bd3e 14ea dc3d
00000020: 2ece 953e 7ac5 843e 9900 483e 9743 f4bd
00000030: ded7 823d fe3b de3e b6bb b5be a22d cbbd
00000040: 321d 06bf a260 e13e a232 f03e 9eb8 0d3f
00000050: e143 6e3e 174c 97be 8cad 603d e9bd 5d3d
00000060: 68ef 813d 8b20 953e 6d76 dcbe 33f0 4dbe
00000070: 1bd0 3d3e c72d acbe c287 af3e 7420 293e
00000080: d462 163e 24da 4c3e c6fd 17be f922 e1be
00000090: 233a dc3e 96d4 bd3e 152a aebd d3f9 87be
000000a0: adc8 8d3e 5ac6 a9be 31e1 12be 12de 253e
000000b0: e470 863e 36ad e5be e915 fc3d 04b7 07be
000000c0: 09be 05bd 623c 4c3d 2324 563e 8999 e53d
000000d0: c8db c1be 7e79 27be cdfd 84be 3fba 6d3e
000000e0: 7b15 5d3d 9782 97be 47f1 13be 1e52 943e
000000f0: f492 15be 1aff da3e 9c63 cc3d af21 1d3e
00000100: 6c5e 8fbe 30a8 fc3e c570 8cbd 050e 92be
00000110: 79b7 7dbe 5456 cb3e a18c cabe 0682 86be
00000120: 1aa5 2ebb 3db7 c5be a49c d0be 6942 d73e
00000130: 7370 13be b56b c5be b7e3 033f 3cc3 c9be
00000140: 2467 bd3e 3db0 8fbe fadf 133d 5782 b6be
00000150: b20f d8be be80 963c 6052 9dbe 7624 33be
00000160: b89b a6be 2ee5 09bf 8208 1b3e 65c8 053e
00000170: f85b 58be 58a2 023f 5014 f53c ea8f 97be
00000180: 88d9 0dbe 7c6a e3be 232a 8bbd 28ae 153f
00000190: dd52 a13d cb58 24bf 4919 d03e 2876 dc3e
000001a0: 5fc8 493d b850 0a3f fe36 033f 36ff 05bf
000001b0: 77d8 69be f257 ce3e 1b29 1dbf 7a02 0b3e
000001c0: 8e45 91be 06d8 cf3e 99d4 b83e aa41 e23d
000001d0: c264 db3e 6de1 523e 3544 203e aebe 17be
000001e0: 7b03 6e3e 67dd 293d 6518 fcbd 88e3 7cbe
000001f0: d7d3 f73d 48bc 1fbf 3812 f93c e8ea 243e
00000200: 9f74 cabe 0c8c 2a3e 88bb b83d d517 3a3d
00000210: e9d6 8abd 1350 063e 55c6 0cbe 5a07 f5bb
00000220: 4360 0b3e 5f8e 31be 5512 53be 1769 ac3d
00000230: 7b94 b7bd 3afa 2cbe 0148 7cbd ffc6 e9bc
00000240: 8a94 103e a83c 043e 41c9 d3bb a83f 9fbe
00000250: 67ec dbbd ef5a 9c3e 21c0 bd3c 372e b83e
00000260: 73da f7be 2711 97bd 83b2 923e 5088 0a3e
00000270: 4bd6 cc3d 9dc3 c33d cff4 59be 5ae6 13bf
00000280: 8b56 0c3e 188d 7c3d c8df 45bd 872e 8dbd
00000290: e0f0 743e 9c7a 723e 346d bbbe 303d 11be
000002a0: eed4 1f3e 6bc5 0dbe acad 15be 26ad 693e
000002b0: 77c8 693e 979f b6bd 2246 a03e 8655 2e3e
000002c0: 0f0f b4be 35b2 22be 97e1 0b3e 85b6 f8bd
000002d0: 8086 6fbe 2986 3cbd 448d c0be cc1b c03d
000002e0: 6363 5a3e b72f 99bd 1d4e 9a3e 93a9 2a3e
000002f0: 7966 04bf c269 583d 73e3 02be 8a18 ca3d
00000300: ff7d ba3d e1d4 8bbe 0d7c 2ebe 7afa 1c3f
00000310: d9bf f83d 5b16 bebe 94b8 093f c206 dd3e
00000320: 6433 f33c c7ee 1f3f d738 c43e c816 1ebf
00000330: 544a 2cbd 48cb fb3e 1526 14bf 0d85 c83d
00000340: e17c 843d 3e2f 803e af3f c13b b56c 3bbc
00000350: 2d41 ad3e a6a5 d83d e71a 6d3e 2182 1d3d
00000360: 0933 0c3e fd6d 9e3e ac23 a2bd 86c0 9ebe
00000370: 4210 753e 8dda 19bf c143 c63d 1067 3f3e
00000380: 2f0d 913c 345a 20be b714 b8bd cbba 703e
00000390: 610a d13c c4c3 babd 2fa1 b53e 5624 663e
000003a0: a54a ffbe 5ba4 a53e 0dd8 b33d 5662 0abe
000003b0: 20a3 2cbe 5ef0 753e 83ac 7cbd 50fd 203c
000003c0: a494 babd 3144 1cbe 3a68 c6bd 42f4 41bd
000003d0: 6e10 0e3d ed8f 983e 63a7 39bd 5205 173e
000003e0: 0c26 d0bd d69a 823e 64c4 443a df71 1abd
000003f0: b01b 703e 8317 a5bc b602 40be 0b85 1d3d

rnn.bias_ih_l0 f4 [32]
0.0051612253 0.44919607 -0.06875823 -0.2584408 0.14355932 0.3017142 -0.27808854 -0.34552133
0.2051351 -0.3115882 -0.4358677 0.4203998 0.13295248 -0.33720765 0.38595837 -0.03023179
-0.34964436 -0.035482198 0.04108469 -0.06344333 -0.35433578 0.4715881 0.07011798 0.10967608
-0.19755618 -0.14406839 0.044218317 0.16264646 -0.033449024 0.3553308 -0.172052 -0.2987066
00000000: 7f1f a93b 07fd e53e 1dd1 8cbd 5a52 84be
00000010: 3701 133e 497a 9a3e 9f61 8ebe 2ce8 b0be
00000020: f00e 523e 7d88 9fbe 0d2a dfbe a53e d73e
00000030: b224 083e 7ba6 acbe 569c c53e a9a8 f7bc
00000040: 9604 b3be c855 11bd 6b48 283d 94ee 81bd
00000050: 806b b5be ff73 f13e 049a 8f3d da9d e03d
00000060: 2b4c 4abe aa86 13be 441e 353d cb8c 263e
00000070: d801 09bd ebed b53e 662e 30be 12f0 98be

rnn.bias_hh_l0 f4 [32]
-0.024923189 0.39924207 0.17274253 -0.3892028 0.021436544 0.35096812 -0.39897695 -0.317689
0.06593543 -0.4371701 -0.4419481 0.3143272 0.07796978 -0.5292144 0.5028087 -0.1894348
-0.033665434 -0.16676699 0.16469447 -0.02220996 -0.37827536 0.29939988 0.09883825 -0.0010757312
-0.15710245 -0.08082311 -0.12096415 0.14945953 0.02927709 0.48094147 -0.029101305 -0.42835313
00000000: b72b ccbc 7569 cc3e 6be3 303e 9745 c7be
00000010: b19b af3c 18b2 b33e b546 ccbe 22a8 a2be
00000020: 2809 873d c2d4 dfbe 0547 e2be 7fef a03e
00000030: 9fae 9f3d 987a 07bf 12b8 003f 32fb 41be
00000040: c4e4 09bd f7c4 2abe aba5 283e a9f1 b5bc
00000050: 4fad c1be f14a 993e b56b ca3d 8dff 8cba
00000060: 77df 20be 9686 a5bd 0dbc f7bd eb0b 193e
00000070: 82d6 ef3c f63d f63e dc65 eebc 1a51 dbbe

rnn.weight_ih_l1 f4 [32, 32]
0.14759225 0.26696706 -0.012179605 -0.21823618 -0.047992423 0.533966 -0.22883736 -0.23608835
0.23594391 -0.5054445 -0.41535184 0.2983798 0.4646785 -0.30763882 0.21218506 0.08058886
-0.33050904 -0.34222767 -0.13202617 0.0277343 -0.30870235 0.33884263 0.056748826 -0.0849815
-0.1924394 0.13371615 -0.059623092 -0.045317896 -0.38581583 0.38543266 0.12778223 -0.47742328
0.021839295 0.41021433 0.1512235 -0.31281307 -0.022329526 0.40725708 -0.48618793 -0.28508908
0.27689397 -0.35939097 -0.38755566 0.5315982 0.43294623 -0.4319871 0.46038374 -0.057276495
-0.18564844 -0.42301863 0.115687564 -0.13570549 -0.27152127 0.22174287 0.13058485 0.11556797
-0.23984052 -0.11073427 -0.3361328 0.34342137 -0.4688924 0.27937225 0.047395732 -0.24755791
0.021836918 -0.5105815 -0.2656397 0.39650732 0.023580873 -0.25424138 0.38991043 0.39865965
-0.29365864 0.24523248 0.15783212 -0.29267403 -0.17084543 0.35289606 -0.28451103 0.098675475
0.2864381 0.23943162 -0.05886466 -0.18821049 0.2561426 -0.3071434 -0.1775477 0.0997126
0.46518126 0.10768964 0.03857157 -0.31867957 0.054987974 -0.27982113 -0.093155876 0.5963246
-0.088041656 -0.30463088 0.13906333 0.075418636 -0.06279969 0.007501693 0.17581105 0.0719437
0.042974994 0.18227339 0.15341254 0.04050493 0.032875337 0.0037948883 -0.14062111 -0.121611774
-0.3857415 -0.040547866 -0.07870044 0.050909217 0.27002358 0.09266583 0.07789452 -0.15575169
-0.07741693 0.34590814 -0.1341414 0.23551457 0.18573195 -0.19268738 -0.09792352 -0.2610094
-0.049445856 0.35929805 0.082085304 -0.14849778 -0.043423016 0.12595314 -0.19474626 -0.1064557
-0.15092382 -0.30925313 -0.10504604 0.30125415 -0.16227706 -0.20857711 0.13733758 -0.4154537
0.4722901 0.08087728 0.05738456 0.045429118 -0.1915776 -0.42423347 -0.15813547 0.3154671
-0.020136278 -0.51936233 0.16385782 -0.062031165 -0.1521074 0.05145989 0.1485134 -0.07641366
-0.2411458 0.34221512 0.3156421 -0.124940224 -0.056912992 0.39414114 -0.2533045 -0.1682956
0.35905388 -0.29232782 -0.15237927 0.12340247 0.29262364 -0.13478784 0.36504534 -0.014319222
-0.10403816 -0.0971937 0.10231759 -0.14776678 -0.060879637 0.33646464 -0.19786462 0.11878627
-0.42711943 0.104757234 -0.21276021 0.21298659 -0.23277138 0.16712765 -0.09663016 -0.6381951
0.23222168 0.17733565 0.06663407 -0.19613105 -0.071907744 0.18676786 -0.22293706 -0.29491404
0.078346774 -0.29824856 -0.20135938 0.089119636 0.32203874 -0.08346841 0.3322936 0.058654595
0.038684778 -0.13886644 -0.17034373 -0.2994458 -0.3083694 0.35598442 -0.29805234 0.05961098
-0.2654263 0.18446949 0.015886938 -0.031538513 -0.32324076 0.26571447 -0.06876765 -0.30783924
0.25284556 -0.21418536 -0.22691806 0.2637747 -0.094082005 -0.20511824 0.4927231 0.4560205
-0.4427233 0.3831617 0.50088066 -0.34275073 -0.4698579 0.41355792 -0.53203326 0.12730706
0.18171619 0.11325215 0.07017258 0.080911785 0.4692123 0.028343925 0.19545378 0.15452349
0.17961738 -0.059604604 0.009312882 -0.3022534 0.21596536 -0.38186473 0.028004413 0.2159436
00000000: 6c22 173e e8af 883e f78c 47bc 4e79 5fbe
00000010: b493 44bd ffb1 083f 5754 6abe 25c1 71be
00000020: 489b 713e d064 01bf ffa8 d4be 3dc5 983e
00000030: 57ea ed3e d682 9dbe 0a47 593e c60b a53d
00000040: 7b38 a9be 7738 afbe de31 07be 0b33 e33c
00000050: 3c0e 9ebe c87c ad3e 7571 683d c80a aebd
00000060: d60e 45be e3ec 083e 5837 74bd 429f 39bd
00000070: a789 c5be 6e57 c53e 58d9 023e d370 f4be
00000080: 52e8 b23c 9d07 d23e 55da 1a3e 0929 a0be
00000090: 69ec b6bc 0084 d03e a0ed f8be 32f7 91be
000000a0: 0cc5 8d3e 1802 b8be b26d c6be d216 083f
000000b0: 21ab dd3e 6a2d ddbe 6bb7 eb3e c29a 6abd
000000c0: a01a 3ebe e695 d8be 9aed ec3d 61f6 0abe
000000d0: d604 8bbe 9010 633e 09b8 053e e6ae ec3d
000000e0: c198 75be a6c8 e2bd 9919 acbe edd4 af3e
000000f0: aa12 f0be e109 8f3e 0722 423d d27f 7dbe
00000100: 56e3 b23c 78b5 02bf ed01 88be 0203 cb3e
00000110: ad2c c13c ed2b 82be 57a2 c73e 1e1d cc3e
00000120: 6d5a 96be 391e 7b3e be9e 213e 5fd9 95be
00000130: 1bf2 2ebe cbae b43e 6eab 91be 5e16 ca3d
00000140: 04a8 923e 902d 753e 121c 71bd 40ba 40be
00000150: 1f25 833e e641 9dbe 10cf 35be 1f36 cc3d
00000160: 3d2c ee3e 638c dc3d 39fd 1d3d f829 a3be
00000170: 123b 613d b744 8fbe 82c8 bebd bba8 183f
00000180: 2f4f b4bd 94f8 9bbe 9e66 0e3e 1675 9a3d
00000190: 209d 80bd c3d0 f53b d007 343e 3857 933d
000001a0: 8c06 303d e0a5 3a3e 2d18 1d3e 7fe8 253d
000001b0: 4aa8 063d a9b3 783b fbfe 0fbe 980f f9bd
000001c0: e97f c5be 8515 26bd b22d a1bd 2f86 503d
000001d0: 8840 8a3e 95c7 bd3d 2987 9f3d 5f7d 1fbe
000001e0: c48c 9ebd df1a b13e 5d5c 09be bb2a 713e
000001f0: 8430 3e3e d74f 45be 208c c8bd 06a3 85be
00000200: bd87 4abd eaf5 b73e 571c a83d cd0f 18be
00000210: 55dc 31bd dcf9 003e 906b 47be 7205 dabd
00000220: c68b 1abe 6d56 9ebe 6122 d7bd fc3d 9a3e
00000230: f52b 26be 3d95 55be 39a2 0c3e 59b6 d4be
00000240: 02d0 f13e fda2 a53d 130c 6b3d e213 3a3d
00000250: eb2c 44be 2135 d9be 44ee 21be e784 a13e
00000260: d6f4 a4bc eef4 04bf 58ca 273e 6414 7ebd
00000270: 0bc2 1bbe 9bc7 523d e613 183e c47e 9cbd
00000280: edee 76be d236 af3e d79b a13e a9e0 ffbd
00000290: 991d 69bd decc c93e 21b1 81be af55 2cbe
000002a0: e9d5 b73e feab 95be 5009 1cbe 6fba fc3d
000002b0: c4d2 953e d305 0abe 39e7 ba3e 2c9b 6abc
000002c0: f511 d5bd 7e0d c7bd e28b d13d 2d50 17be
000002d0: ed5c 79bd 1845 ac3e 069d 4abe 3746 f33d
000002e0: 66af dabe f68a d63d d0dd 59be 2819 5a3e
000002f0: 9f5b 6ebe 8323 2b3e 09e6 c5bd c160 23bf
00000300: 85cb 6d3e 7a97 353e 7177 883d 94d6 48be
00000310: 5e44 93bd 1340 3f3e 9d49 64be f9fe 96be
00000320: 4674 a03d 09b4 98be 2731 4ebe 5b84 b63d
00000330: 43e2 a43e 7cf1 aabd 6322 aa3e cd3f 703d
00000340: ee73 1e3d 0133 0ebe 966e 2ebe f650 99be
00000350: 98e2 9dbe 9743 b63e 519a 98be a52a 743d
00000360: f5e5 87be 92e5 3c3e 5325 823c 872e 01bd
00000370: d07f a5be ba0b 883e 0ed6 8cbd 1b9d 9dbe
00000380: f974 813e 6853 5bbe 355d 68be 7a0d 873e
00000390: 11ae c0bd 840a 52be 3446 fc3e 857b e93e
000003a0: a1ac e2be c52d c43e b739 003f 067d afbe
000003b0: 3791 f0be ddbd d33e 5533 08bf c85c 023e
000003c0: cf13 3a3e bef0 e73d a4b6 8f3d 14b5 a53d
000003d0: 983c f03e 8531 e83c 0925 483e 683b 1e3e
000003e0: 9eed 373e f523 74bd 0f95 183c f5c0 9abe
000003f0: 0626 5d3e c683 c3be 8369 e53c 5220 5d3e

rnn.weight_hh_l1 f4 [32, 32]
-0.06025317 0.17413612 -0.16463779 -0.08168461 0.0011615593 0.16343908 0.035339575 -0.052252267
0.05766813 -0.5210477 0.18206638 0.01235651 -0.06344187 0.19853328 -0.18753274 0.20999101
0.24472716 0.024629934 0.2441472 0.053941395 -0.072337545 -0.20213404 0.20371792 -0.16267835
-0.18492094 -0.10124632 0.12679414 -0.4196696 0.27537975 -0.067333795 -0.0062456974 -0.069357075
0.07574037 0.040274225 -0.04488831 -0.1546202 0.14607039 0.034425404 -0.05318092 -0.06070021
0.2307733 -0.27167916 0.24487081 -4.633825e-05 -0.014240485 0.16419478 -0.19078305 -0.082650065
-0.004667306 -0.05703524 0.4431712 -0.28215417 0.13806899 -0.09266772 -0.12375511 -0.22969383
-0.2996823 0.0070610703 0.13508585 -0.2946305 0.081660345 -0.017676653 0.12602784 -0.09543003
-0.065645605 -0.2770731 0.035251576 -0.14684021 0.20399368 -0.26054233 -0.1476426 0.28269717
0.08376411 0.2404132 -0.4373587 0.21378063 -0.022612868 -0.1994313 0.39284527 -0.11806991
-0.3062674 -0.12936756 -0.24003959 -0.05376825 -0.25574833 -0.18092036 -0.28195992 0.29429507
0.36184603 0.11958633 -0.4873118 0.31951293 -0.1534122 0.10306008 -0.10406926 0.043021727
0.6546595 0.18186489 -0.42637715 0.11089352 -0.39123634 0.14655572 0.4631599 -0.24769329
0.5522429 -0.31967026 0.25649837 -0.08372838 0.49568406 -0.54925996 -0.033001456 0.06630318
0.22002071 0.46726424 -0.081683956 0.49258876 0.5647708 -0.46579203 0.1917918 -0.3705842
-0.20719133 -0.043235894 0.03161864 -0.13201344 0.2635248 0.25089929 0.6575164 -0.27794933
0.16255532 0.24334995 0.15138128 0.17264725 0.033929203 0.15300341 -0.07934097 -0.068105474
0.16095056 -0.031026566 0.22630294 -0.16066739 -0.22912662 0.10170188 0.009278385 -0.035694763
-0.029858366 -0.22965243 0.12499791 0.011480158 0.1241666 0.16017003 0.067994125 -0.031971175
-0.25449982 -0.15846047 0.086950056 -0.14272189 0.027897874 -0.10360055 0.014123215 -0.06772165
-0.20704298 -0.10428052 -0.077998206 0.017019644 0.07889167 -0.35239744 0.0004079029 -0.13416333
-0.06776974 -0.041956995 0.10630669 0.09035125 -0.013346256 0.0826087 -0.15759638 0.068757005
0.08361183 -0.42555746 0.5023214 -0.2444008 -0.04762084 0.30914807 -0.109668165 -0.11694508
-0.038056448 0.06785653 0.094712876 0.043492988 -0.09467695 -0.11403548 0.063318096 0.13699317
0.20255494 0.43870434 -0.11408019 0.060119756 -0.16193312 0.46082503 0.09278853 -0.25135642
0.04696876 -0.2725593 0.4887262 -0.45774153 0.36573097 -0.03295494 -0.4083217 0.47247988
0.36896726 0.22801596 0.20483564 0.46968916 0.09597342 -0.36825195 0.5846167 -0.54361814
-0.20727444 -0.49961734 0.2813178 -0.21570149 -0.09427118 0.16759613 0.15076457 -0.65732056
-0.07253368 -0.19133672 0.068529055 0.14567694 -0.08046716 0.102807015 -0.11829337 0.22619447
-0.12520841 0.24348646 -0.13991955 0.24419995 0.07430698 -0.11108983 0.18785562 -0.20391065
0.052981477 0.13622853 -0.49040928 0.15646262 0.00041428432 0.054072727 -0.026581354 0.2103994
0.28448874 -0.15102315 -0.06013908 0.06339944 -0.1671592 0.16565119 0.09338184 0.06777657
00000000: 07cc 76bd bd50 323e cf96 28be 434a a7bd
00000010: 763f 983a 935c 273e 3bc0 103d 7906 56bd
00000020: 6b35 6c3d 6263 05bf 9c6f 3a3e f672 4a3c
00000030: d0ed 81bd 4f4c 4b3e 9508 40be e207 573e
00000040: c299 7a3e b7c4 c93c b901 7a3e a7f1 5c3d
00000050: b525 94bd 3afc 4ebe 6e9b 503e 2795 26be
00000060: ea5b 3dbe 3b5a cfbd 53d6 013e efde d6be
00000070: 93fe 8c3e 4de6 89bd b5a8 ccbb 150b 8ebd
00000080: c41d 9b3d 96f6 243d cedc 37bd c254 1ebe
00000090: 7a93 153e a701 0d3d 3dd4 59bd c9a0 78bd
000000a0: d64f 6c3e 8819 8bbe 6abf 7a3e 515b 42b8
000000b0: ec50 69bc ad22 283e a25c 43be 7044 a9bd
000000c0: 33f0 98bb c99d 69bd 56e7 e23e 8376 90be
000000d0: f561 0d3e 93c8 bdbd 5273 fdbd dc34 6bbe
000000e0: f56f 99be 8d60 e73b f253 0a3e cfd9 96be
000000f0: 8a3d a73d a1ce 90bc 710d 013e d270 c3bd
00000100: 3471 86bd 86dc 8dbe f563 103d 485d 16be
00000110: b8e3 503e ce65 85be 9f2f 17be afbd 903e
00000120: 858c ab3d e12e 763e 7bed dfbe 4fe9 5a3e
00000130: 9f3e b9bc b837 4cbe 0423 c93e a3ce f1bd
00000140: 15cf 9cbe ee78 04be f0cc 75be 193c 5cbd
00000150: 72f1 82be 3043 39be 0d5d 90be d8ad 963e
00000160: e243 b93e aee9 f43d ef80 f9be 3397 a33e
00000170: 1618 1dbe 2a11 d33d 4422 d5bd 8d37 303d
00000180: c497 273f ca3a 3a3e 1b4e dabe 241c e33d
00000190: 2150 c8be b412 163e 4b23 ed3e 4fa3 7dbe
000001a0: ca5f 0d3f d2ab a3be c153 833e c979 abbd
000001b0: 4dca fd3e 4d9c 0cbf 892c 07bd f6c9 873d
000001c0: 1c4d 613e 423d ef3e eb49 a7bd 9834 fc3e
000001d0: d294 103f 4b7c eebe 1265 443e 36bd bdbe
000001e0: f729 54be 1f18 31bd 8c82 013d 882e 07be
000001f0: b9ec 863e df75 803e ff52 283f 604f 8ebe
00000200: e774 263e bb30 793e b203 1b3e 71ca 303e
00000210: 59f9 0a3d edac 1c3e 857d a2bd e27a 8bbd
00000220: 39d0 243e 6d2b febc f5bb 673e fe85 24be
00000230: 2ba0 6abe 1349 d03d 5e04 183c ac34 12bd
00000240: 8899 f4bc 022a 6bbe e7fe ff3d 4617 3c3c
00000250: 0f4b fe3d 9d03 243e 8140 8b3d 35f4 02bd
00000260: cd4d 82be 7643 22be df12 b23d b025 12be
00000270: 158a e43c 862c d4bd 0f65 673c a6b1 8abd
00000280: 1303 54be 0691 d5bd 86bd 9fbd c86c 8b3c
00000290: f591 a13d 706d b4be cddb d539 1d62 09be
000002a0: ddca 8abd 19db 2bbd 52b7 d93d 130a b93d
000002b0: 41aa 5abc c02e a93d f260 21be 79d0 8c3d
000002c0: ae3c ab3d abe2 d9be 2398 003f 3444 7abe
000002d0: 120e 43bd a848 9e3e b499 e0bd e780 efbd
000002e0: 14e1 1bbd 5df8 8a3d d3f8 c13d b425 323d
000002f0: fde5 c1bd 6f8b e9bd ebac 813d f047 0c3e
00000300: 906a 4f3e db9d e03e e0a2 e9bd 2240 763d
00000310: ccd1 25be 42f1 eb3e ea07 be3d cab1 80be
00000320: 5162 403d e48c 8bbe 523a fa3e 195d eabe
00000330: 1741 bb3e c2fb 06bd 8b0f d1be e2e8 f13e
00000340: 47e9 bc3e 047d 693e 6fc0 513e 197b f03e
00000350: b68d c43d 858b bcbe 71a9 153f 8f2a 0bbf
00000360: c03f 54be d8cd ffbe e308 903e dae0 5cbe
00000370: 4011 c1bd 529e 2b3e 0762 1a3e 2946 28bf
00000380: 8a8c 94bd c6ed 43be f658 8c3d 562c 153e
00000390: f7cb a4bd 7c8c d23d cb43 f2bd 869f 673e
000003a0: a236 00be 8454 793e 1247 0fbe 8d0f 7a3e
000003b0: 422e 983d 1183 e3bd 395d 403e f4cd 50be
000003c0: 1b03 593d 7e7f 0b3e ed16 fbbe bd37 203e
000003d0: 4d34 d939 5d7b 5d3d 24c1 d9bc f172 573e
000003e0: 82a8 913e d0a5 1abe 6554 76bd 91d7 813d
000003f0: c82b 2bbe 77a0 293e fa3e bf3d 71ce 8a3d

rnn.bias_ih_l1 f4 [32]
0.396683 0.4214874 -0.15054277 -0.16344664 0.070775986 0.23132685 0.17798182 -0.31450117
0.27203435 -0.53635657 0.23298405 -0.55297565 0.35005072 -0.26155436 -0.08161101 0.321855
0.21410882 0.09100235 0.22193792 -0.095891885 0.23873691 -0.28634006 0.34639406 -0.39863062
-0.17495698 -0.22186042 0.2919726 -0.21543412 0.021197628 0.012329493 0.37065524 -0.40285778
00000000: 091a cb3e 32cd d73e e227 1abe 8e5e 27be
00000010: 00f3 903d f2e0 6c3e de40 363e 4c06 a1be
00000020: 1648 8b3e aa4e 09bf 5f93 6e3e d08f 0dbf
00000030: d939 b33e 74ea 85be ac23 a7bd 2eca a43e
00000040: 583f 5b3e 715f ba3d b243 633e f762 c4bd
00000050: 7377 743e 2a9b 92be 905a b13e 5019 ccbe
00000060: ec27 33be 612f 63be 6f7d 953e c39a 5cbe
00000070: a6a6 ad3c a401 4a3c 86c6 bd3e 6043 cebe

rnn.bias_hh_l1 f4 [32]
0.29242122 0.21206802 -0.34793887 -0.036463562 0.24746454 0.38381162 0.118058495 -0.4017265
0.34759575 -0.4953492 0.23800342 -0.5181836 0.15257148 -0.20455539 -0.27644154 0.46722043
0.40563482 0.1860401 0.16706918 0.16147968 0.18674181 -0.30377042 0.42914462 -0.3428944
-0.23628199 -0.39106074 0.19843572 -0.27657396 0.2148815 -0.08347507 0.33856365 -0.3611657
00000000: 3cb8 953e 5c28 593e 0b25 b2be d15a 15bd
00000010: 5867 7d3e f582 c43e a7c8 f13d 19af cdbe
00000020: 12f8 b13e 699e fdbe 2bb7 733e aea7 04bf
00000030: b33b 1c3e f876 51be bf89 8dbe 8437 ef3e
00000040: 5eaf cf3e 4c81 3e3e 2f14 2b3e ee5a 253e
00000050: 3f39 3f3e cc87 9bbe d8b8 db3e db8f afbe
00000060: e8f3 71be 1d39 c8be bc32 4b3e 1a9b 8dbe
00000070: e509 5c3e faf4 aabd 3758 ad3e b6ea b8be

rnn.weight_ih_l2 f4 [32, 32]
0.15510271 0.26605305 -0.058076944 -0.06732139 -0.18685068 0.079124466 0.28728455 0.009317915
0.009826255 0.1502137 -0.21898368 0.21051839 0.18137558 0.044999097 0.2373807 -0.052825246
0.24959815 -0.040974528 -0.24386743 -0.3225559 0.28032875 -0.17372322 -0.025761811 -0.22603048
0.20230065 -0.08556017 0.012534956 -0.1167716 -0.28630605 0.17343038 -0.025741093 -0.12638178
-0.2017318 -0.19823414 0.19329382 -0.0066908854 -0.13398027 0.18893749 -0.115549035 0.28097892
-0.22107781 0.1473865 -0.4725556 0.32950076 -0.33398134 0.006636883 0.1882844 -0.07365027
0.006506147 0.1579217 -0.241836 0.037170388 -0.16671732 0.16711834 -0.26682532 0.01832893
0.41228136 0.04900972 -0.06898854 0.45764464 -0.37153614 -0.1499047 -0.1914388 0.28241494
-0.08899164 -0.02534419 0.2477765 -0.12324653 0.07222521 -0.08825175 -0.2122054 0.051656738
-0.24251254 -0.021343386 0.28234112 -0.13670427 -0.1409371 0.16675413 0.0045908284 0.061528288
-0.03734709 -0.35029012 0.14760223 -0.040516365 -0.12319088 0.21595731 0.011653699 0.013752875
-0.13715586 0.21490966 -0.276866 0.052635863 0.31880212 -0.15487425 -0.14641336 0.024228057
0.1673384 0.21493754 -0.40006843 0.01827089 0.10057111 0.28515425 0.026505038 -0.07946261
0.38527897 -0.36952192 -0.21134675 -0.29699293 0.27658612 -0.18953435 0.25537452 0.20797615
0.1646178 0.38831362 0.033201367 0.21801436 0.10506592 -0.41203436 0.09016745 -0.1284326
-0.12341522 -0.26735017 0.047198933 0.08765871 -0.13278426 -0.071467526 0.1528885 -0.37697154
0.20355241 0.34118164 -0.22856647 0.19000007 -0.0672761 0.37354857 0.30290258 -0.30988058
0.428372 -0.4344943 0.5131268 -0.6693384 0.48283005 -0.21737051 -0.51114607 0.4687018
0.5092157 0.52898103 0.22635579 0.47207844 0.07974273 -0.40676358 0.544687 -0.49228045
-0.3097031 -0.3313339 0.28271034 -0.56661564 0.40274101 0.116520435 0.40811035 -0.39186212
-0.43213394 -0.25568953 0.3319476 -0.07964284 -0.19443564 -0.37309164 -0.22599642 0.49862328
-0.2467413 0.2737978 -0.67203516 0.3439527 -0.47607604 0.41798946 0.3493327 -0.51250416
-0.42711088 -0.18411325 -0.3599275 -0.13105302 -0.35924453 0.23070659 -0.24676724 0.3139412
0.3806008 0.3717553 -0.22127207 0.6600655 -0.61865366 -0.25885516 -0.38078114 0.2845641
-0.14912549 0.02145811 -0.016010894 0.2865364 -0.47498712 -0.106291026 0.22147179 -0.053448938
0.022730945 0.24984382 -0.099494964 -0.031561006 0.03277134 -0.06862485 -0.35582596 0.0563506
-0.07979882 0.11524557 0.020744437 0.11720585 0.21014729 -0.028101843 0.08549108 0.114020854
-0.036940664 0.030436557 -0.03229925 -0.0012347016 0.17292757 0.33018515 -0.060787104 0.10650265
0.0266697 -0.024008157 -0.21767558 0.09198681 -0.2809009 0.2508846 0.25360328 -0.15325403
0.08603943 -0.1496433 -0.1638315 -0.049113046 -0.10035872 -0.09578857 0.11652681 -0.14909375
0.14618482 0.38417137 0.1009778 0.069015495 0.17707548 -0.15092964 -0.063202605 -0.27924109
0.11502204 -0.15223272 0.25750965 0.22605675 -0.1842926 -0.05406521 0.23519614 -0.050096534
00000000: 3fd3 1e3e 1b38 883e 17e2 6dbd ccdf 89bd
00000010: c955 3fbe 020c a23d f616 933e 2baa 183c
00000020: 4dfe 203c 9fd1 193e 423d 60be 2292 573e
00000030: 85ba 393e f950 383d ed13 733e 495f 58bd
00000040: a896 7f3e e8d4 27bd 62b8 79be 0c26 a5be
00000050: 4087 8f3e 80e4 31be 6f0a d3bc 8974 67be
00000060: e727 4f3e 2c3a afbd 6b5f 4d3c f325 efbd
00000070: b596 92be bc97 313e fcde d2bc 3a6a 01be
00000080: c892 4ebe e4fd 4abe d1ee 453e 373f dbbb
00000090: 2032 09be d478 413e f9a4 ecbd 78dc 8f3e
000000a0: 3962 62be 7dec 163e cff2 f1be 53b4 a83e
000000b0: 9aff aabe 367a d93b a0cd 403e f4d5 96bd
000000c0: 8431 d53b 3ab6 213e dba3 77be fa3f 183d
000000d0: f2b7 2abe 1221 2b3e 549d 88be 8d26 963c
000000e0: 8b16 d33e 6bbe 483d dd49 8dbd 6650 ea3e
000000f0: fc39 bebe 9e80 19be 8808 44be b198 903e
00000100: 4041 b6bd 9e9e cfbc 1fb9 7d3e ad68 fcbd
00000110: d0ea 933d 55bd b4bd 5f4c 59be 0496 533d
00000120: 3555 78be 53d8 aebc 048f 903e 34fc 0bbe
00000130: d151 10be 98c1 2a3e a96e 963b 1605 7c3d
00000140: 43f9 18bd 3a59 b3be 0a25 173e 7df4 25bd
00000150: 804b fcbd ea23 5d3e 28ef 3e3c bd53 613c
00000160: 9672 0cbe 4711 5c3e 61c1 8dbe b498 573d
00000170: 083a a33e 5b97 1ebe 62ed 15be eb79 c63c
00000180: c25a 2b3e 9618 5c3e c5d5 ccbe d5ac 953c
00000190: 3af8 cd3d bdff 913e 1821 d93c 4bbd a2bd
000001a0: 4943 c53e fa31 bdbe 486b 58be 750f 98be
000001b0: b29c 8d3e 4b15 42be 73c0 823e b3f7 543e
000001c0: 9291 283e 0bd1 c63e 28fe 073d 283f 5f3e
000001d0: cd2c d73d 2bf6 d2be b6a9 b83d d683 03be
000001e0: 1ec1 fcbd 1fe2 88be ab53 413d 6986 b33d
000001f0: 99f8 07be 915d 92bd ce8e 1c3e 6a02 c1be
00000200: 0b70 503e 5caf ae3e 540d 6abe 618f 423e
00000210: 0dc8 89bd c241 bf3e 0c16 9b3e aba8 9ebe
00000220: 9353 db3e 0976 debe 475c 033f c359 2bbf
00000230: 8035 f73e 6096 5ebe 78da 02bf aff9 ef3e
00000240: f65b 023f 4d6b 073f d0c9 673e 44b4 f13e
00000250: 2850 a33d 5143 d0be 9b70 0b3f 2f0c fcbe
00000260: 6891 9ebe 99a4 a9be 69bf 903e b90d 11bf
00000270: 1234 ce3e 44a2 ee3d d7f3 d03e 27a2 c8be
00000280: a940 ddbe bde9 82be 09f5 a93e c91b a3bd
00000290: 231a 47be de05 bfbe 9b6b 67be 8d4b ff3e
000002a0: c0a9 7cbe 3a2f 8c3e 7f0a 2cbf 911a b03e
000002b0: 3dc0 f3be b702 d63e bcdb b23e 7933 03bf
000002c0: 47ae dabe 2f88 3cbe 6b48 b8be c332 06be
000002d0: e6ee b7be 593e 6c3e 8db0 7cbe e7bc a03e
000002e0: 1cde c23e b656 be3e 2595 62be 0dfa 283f
000002f0: 1660 1ebf aa88 84be bff5 c2be 63b2 913e
00000300: 5ab4 18be ebc8 af3c 4729 83bc e6b4 923e
00000310: 8331 f3be 1caf d9bd 80c9 623e 46ed 5abd
00000320: 3f36 ba3c 0fd7 7f3e 04c4 cbbd 1d46 01bd
00000330: 3e3b 063d 2f8b 8cbd d22e b6be e3cf 663d
00000340: 906d a3bd df05 ec3d 3df0 a93c 9f09 f03d
00000350: da30 573e d635 e6bc f315 af3d c483 e93d
00000360: 184f 17bd 1656 f93c 384c 04bd b6d5 a1ba
00000370: ed13 313e 070e a93e e6fb 78bd 101e da3d
00000380: 6a7a da3c c1ac c4bc 59e6 5ebe 9563 bc3d
00000390: 3ed2 8fbe f273 803e 4ad8 813e a0ee 1cbe
000003a0: 7135 b03d 183c 19be 72c3 27be c32a 49bd
000003b0: df88 cdbd cc2c c4bd 9ca5 ee3d 08ac 18be
000003c0: 79b1 153e 1cb2 c43e 73cd ce3d ff57 8d3d
000003d0: 4653 353e 4d8d 1abe 5e70 81bd b0f8 8ebe
000003e0: ad90 eb3d e5e2 1bbe 4ed8 833e 6c7b 673e
000003f0: 33b7 3cbe 7b73 5dbd 42d7 703e 0632 4dbd

rnn.weight_hh_l2 f4 [32, 32]
0.3446164 0.4502459 -0.537176 0.19035622 -0.59204656 0.62859166 0.07831658 0.4038002
0.41294977 0.40145642 -0.3077693 -0.463259 0.21882394 -0.40153366 -0.07611751 -0.2940802
-0.108753674 -0.21212998 -0.30387145 -0.21762073 -0.5275401 0.67694646 -0.0805131 -0.5522094
-0.22820458 -0.2248612 0.4530828 0.3073397 -0.40788686 0.40165076 0.5593658 -0.07846044
0.078500174 0.120834656 -0.1945497 0.2703604 -0.2447464 0.29388928 0.03502941 0.20655073
-0.023970092 0.12402305 -0.24646382 -0.14554493 0.25555697 -0.122348316 0.0020155997 0.00975017
0.26392996 -0.025787117 0.016782206 0.08378925 -0.103001356 -0.05359277 -0.19642626 -0.34239015
-0.1635819 -0.20557733 0.25217575 -0.1635188 -0.33088124 0.3417709 0.09544507 0.029112237
-0.37339994 -0.5205586 0.417333 -0.26931757 0.45531353 -0.72302616 0.3161277 -0.56976974
-0.49106422 -0.49791703 0.38440993 0.65872526 -0.30928722 0.29093137 0.21507314 0.43508467
-0.023114158 0.15116535 0.13449427 0.13467102 0.5418029 -0.6353091 0.03512905 0.6261177
0.13588558 0.3800872 -0.5614147 -0.39315066 0.6693132 -0.5407882 -0.24335608 0.18993156
0.46848294 0.6681485 -0.29437903 0.20319638 -0.61634374 0.63609 -0.13764863 0.28388405
0.33941516 0.74152744 -0.49860942 -0.36212388 0.6093084 -0.53577167 -0.20189795 -0.6814861
-0.23041399 -0.2991372 -0.3801215 -0.64614135 -0.75726885 0.7231245 -0.50192297 -0.71339244
-0.08657802 -0.29288656 0.67407376 0.62479246 -0.43791258 0.46636036 0.7718302 -0.45690435
-0.010413713 -0.31372958 0.3269282 0.0038271674 -0.08810827 -0.10867596 -0.038328987 -0.36576492
0.02812375 0.08053732 0.23704498 0.17841636 -0.24735977 -0.056359954 0.19650133 0.08640895
-0.042014234 0.019573485 0.002714948 -0.07358281 0.17483406 -0.2566969 -0.060383834 0.12008937
0.17539798 -0.08818592 -0.22207288 -0.15429564 0.122879475 -0.14358452 -0.23188235 0.04123912
0.3078041 0.07143545 -0.25176662 0.2800444 -0.096398816 0.29538873 -0.24180663 0.16310054
0.23060472 0.075947285 -0.07793568 -0.21154048 0.17934479 0.040135905 0.10321146 -0.007876147
0.09648371 0.2106031 0.2913024 0.12070879 -0.06894049 0.04163088 -0.20741864 -0.22923319
-0.153635 -0.16244638 0.0680124 0.038578156 -0.35267666 0.06476664 0.04713907 -0.20757625
-0.32287762 -0.0926844 0.24989153 -0.18089062 0.7256011 -0.35271817 -0.24653348 -0.2905735
-0.116300695 -0.6060883 0.1759308 0.43674785 -0.26874542 0.42194137 0.310047 0.566273
0.33788523 0.11494444 0.5617942 0.3455534 0.33698645 -0.22984965 0.3476638 0.51950854
0.052497305 0.3911533 -0.48689428 -0.44943208 0.32056648 -0.0319246 -0.51975477 0.27912042
0.33116755 0.57087344 -0.3916678 0.30525213 -0.31902075 0.595975 -0.38224635 0.23941284
0.47275537 0.57759494 -0.5185408 -0.6020998 0.2675545 -0.15682839 -0.26179704 -0.5744153
0.06385507 0.15088569 -0.22157519 -0.27922386 -0.5624514 0.6892458 -0.20598131 -0.636319
-0.34215716 -0.13315624 0.53996193 0.40047288 -0.5217341 0.37156755 0.31595674 -0.18604188
00000000: 9071 b03e a186 e63e 5e84 09bf beec 423e
00000010: 5d90 17bf 62eb 203f 7164 a03d e6be ce3e
00000020: 276e d33e b28b cd3e f093 9dbe 4930 edbe
00000030: 6213 603e d295 cdbe 7fe3 9bbd ae91 96be
00000040: 3fba debd 9a38 59be 0a95 9bbe f8d7 5ebe
00000050: de0c 07bf 5d4c 2d3f 0de4 a4bd 985d 0dbf
00000060: 76ae 69be 0442 66be 78fa e73e a15b 9d3e
00000070: 8cd6 d0be 2ba5 cd3e 9932 0f3f deaf a0bd
00000080: b3c4 a03d 2978 f73d 0938 47be ae6c 8a3e
00000090: cd9e 7abe a878 963e 007b 0f3d 0982 533e
000000a0: ed5c c4bc ccff fd3d 0361 7cbe bb09 15be
000000b0: 5dd8 823e c191 fabd 2718 043b 2dbf 1f3c
000000c0: d421 873e 813f d3bc d67a 893c b399 ab3d
000000d0: 60f2 d2bd 1884 5bbd f723 49be c34d afbe
000000e0: 0382 27be dd82 52be 2e1d 813e 7971 27be
000000f0: 4469 a9be 98fc ae3e b478 c33d c97c ee3c
00000100: 472e bfbe 5443 05bf acac d53e fee3 89be
00000110: db1e e93e 3e18 39bf 7ddb a13e 6edc 11bf
00000120: c56c fbbe fbee febe 61d1 c43e 38a2 283f
00000130: e55a 9ebe f5f4 943e 223c 5c3e 6bc3 de3e
00000140: e759 bdbc 17cb 1a3e deb8 093e 33e7 093e
00000150: 98b3 0a3f 9ea3 22bf 7be3 0f3d 4049 203f
00000160: 9725 0b3e ca9a c23e e0b8 0fbf 0b4b c9be
00000170: 1c58 2b3f 1871 0abf 5632 79be 6b7d 423e
00000180: ffdc ef3e c80b 2b3f d9b8 96be b612 503e
00000190: b4c8 1dbf cbd6 223f c3f3 0cbe 4059 913e
000001a0: d3c7 ad3e bed4 3d3f bc49 ffbe 4d68 b9be
000001b0: a3fb 1b3f 5528 09bf 56be 4ebe e075 2ebf
000001c0: a5f1 6bbe 8328 99be 499f c2be 8569 25bf
000001d0: 5fdc 41bf b01e 393f 067e 00bf e3a0 36bf
000001e0: d14f b1bd 3af5 95be 1990 2c3f 66f2 1f3f
000001f0: 1436 e0be c9c6 ee3e aa96 453f 5eef e9be
00000200: 479e 2abc 2aa1 a0be 2263 a73e 37d1 7a3b
00000210: 1c72 b4bd 8091 debd dbfe 1cbd 8a45 bbbe
00000220: c763 e63c c0f0 a43d ebbb 723e c7b2 363e
00000230: e14b 7dbe b2d9 66bd a537 493e 2df7 b03d
00000240: 1e17 2cbd 9358 a03c 45ed 313b 96b2 96bd
00000250: b307 333e c76d 83be 0a55 77bd 6af1 f53d
00000260: 879b 333e d29a b4bd 1367 63be adff 1dbe
00000270: 3ca8 fb3d d207 13be 9172 6dbe 5aea 283d
00000280: 8098 9d3e c04c 923d 8ee7 80be fb61 8f3e
00000290: be6c c5bd 313d 973e 289c 77be d403 273e
000002a0: a523 6c3e 408a 9b3d be9c 9fbd 119e 58be
000002b0: 29a6 373e 8c65 243d 8860 d33d f40a 01bc
000002c0: 4099 c53d 57a8 573e 9725 953e 2c36 f73d
000002d0: ac30 8dbd 2485 2a3d 8d65 54be 1bbc 6abe
000002e0: 7e52 1dbe 5858 26be 164a 8b3d 2104 1e3d
000002f0: 0992 b4be 5fa4 843d e614 413d de8e 54be
00000300: 3750 a5be 52d1 bdbd 91e3 7f3e 643b 39be
00000310: fec0 393f 7a97 b4be 4673 7cbe 0dc6 94be
00000320: 0f2f eebd 9a28 1bbf 3427 343e 6a9d df3e
00000330: 0099 89be b308 d83e 7bbe 9e3e 44f7 103f
00000340: 4bff ac3e fe67 eb3d bfd1 0f3f 60ec b03e
00000350: 7d89 ac3e b55d 6bbe fd00 b23e 83fe 043f
00000360: 6a07 573d 3f45 c83e 354a f9be f61b e6be
00000370: 4a21 a43e 5fc3 02bd a60e 05bf dfe8 8e3e
00000380: cb8e a93e c324 123f af88 c8be 024a 9c3e
00000390: b056 a3be d191 183f cbb5 c3be a428 753e
000003a0: fe0c f23e 43dd 133f 17bf 04bf 3623 1abf
000003b0: e7fc 883e 9f97 20be 430a 86be e20c 13bf
000003c0: 72c6 823d c781 1a3e 9be4 62be 6ef6 8ebe
000003d0: d1fc 0fbf 6a72 303f c4ec 52be cde5 22bf
000003e0: 392f afbe 1c5a 08be f23a 0a3f c80a cd3e
000003f0: 5e90 05bf 1a3e be3e 15c5 a13e c381 3ebe

rnn.bias_ih_l2 f4 [32]
-0.18270335 -0.28415185 0.1633231 0.055401493 0.32365718 -0.5709818 0.053739436 -0.20458235
-0.47709224 -0.5891664 0.07761904 0.498664 0.10637645 0.360181 -0.024641667 0.3356872
-0.024786549 0.07826665 0.552257 0.15743917 0.5262115 -0.49412394 -0.08909083 0.39359644
0.121495046 0.1216778 -0.41990128 -0.36316046 0.52776325 -0.2895452 -0.5206899 0.007050916
00000000: 9616 3bbe 5a7c 91be 2c3e 273e adec 623d
00000010: 65b6 a53e dd2b 12bf e21d 5c3d 097e 51be
00000020: 6f45 f4be 9cd3 16bf bbf6 9e3d e350 ff3e
00000030: e5db d93d a569 b83e 52dd c9bc 31df ab3e
00000040: 290d cbbc 444a a03d b760 0d3f bc37 213e
00000050: ccb5 063f d0fd fcbe 4175 b6bd 7985 c93e
00000060: 65d2 f83d 3632 f93d 4dfd d6be 2bf0 b9be
00000070: 7e1b 073f 453f 94be ef4b 05bf 5f0b e73b

rnn.bias_hh_l2 f4 [32]
-0.060086224 -0.39736637 0.05194566 0.11263596 0.26922557 -0.6595026 -0.18791993 -0.059861116
-0.56499773 -0.33793604 0.23650172 0.44651458 0.0022072503 0.37957904 -0.014222566 0.4054328
0.022426127 -0.097081244 0.48435357 0.31454033 0.40934265 -0.68036914 0.04553991 0.46060842
0.22218937 0.076637596 -0.626328 -0.34309715 0.43068862 -0.27465782 -0.37159672 0.137228
00000000: f91c 76bd 9b73 cbbe f9c4 543d afad e63d
00000010: efd7 893e 2ad5 28bf 156e 40be ee30 75bd
00000020: b1a3 10bf f405 adbe 822d 723e 8f9d e43e
00000030: 84a7 103b 2f58 c23e c405 69bc e394 cf3e
00000040: ffb6 b73c 88d2 c6bd 31fd f73e 6e0b a13e
00000050: 5c95 d13e ac2c 2ebf 0f88 3a3d ded4 eb3e
00000060: 9c85 633e 2cf4 9c3d 0857 20bf 6eaa afbe
00000070: 3883 dc3e f39f 8cbe ed41 bebe 7f85 0c3e

out.weight f4 [1, 32]
-0.26595792 -0.42528614 0.35612777 -0.23808624 0.30361655 -0.48916847 0.14169699 -0.47570366
-0.32058707 -0.3641806 0.4580343 0.28782335 -0.26696792 0.32940355 0.39734176 0.42991123
0.33050802 0.28189808 0.30587056 0.4026653 0.37144384 -0.38036665 0.28125533 0.39448783
0.25081548 0.36634138 -0.25323096 -0.362057 0.39250478 -0.46821347 -0.37258056 0.3884934
00000000: a32b 88be 1bbf d9be 6156 b63e e1cc 73be
00000010: a173 9b3e 4a74 fabe 0419 113e 6e8f f3be
00000020: fd23 a4be e175 babe 7983 ea3e 955d 933e
00000030: 05b0 88be 95a7 a83e 6170 cb3e 531d dc3e
00000040: 5938 a93e f254 903e 119b 9c3e 252a ce3e
00000050: e32d be3e 6bbf c2be b300 903e 4ffa c93e
00000060: e36a 803e 1991 bb3e 7da7 81be 895f b9be
00000070: 63f6 c83e adb9 efbe e1c2 bebe 9be8 c63e
