model/1.pth (torch_old, 528344 bytes, 9 tensors)

lstm.weight_ih_l0 f4 [400, 25]
000000 29 ba 7d 3e 00 4d 01 3f d6 42 93 bf b8 71 8b 40
       0.24778046 0.5050812 -1.1504772 4.3576317
000010 96 86 95 3f 65 38 fe bd a5 b2 2d 3f d6 fc 2f 3e
       1.1681697 -0.124131 0.67850715 0.17186293
000020 63 36 a4 bd 98 30 43 3e 02 ab 8d bd 37 48 b7 3d
       -0.08018186 0.19061506 -0.06917383 0.08949321
000030 48 c7 c3 3c d7 01 61 bd 12 a9 5c 3d 52 26 64 3d
       0.023898736 -0.054933395 0.053872176 0.055700608
000040 b0 9c 78 bc bc a4 f1 3c a8 30 0d bc 4d 23 4c bd
       -0.015174076 0.029497497 -0.008617558 -0.049838353
000050 7a b9 5a bd 32 94 ae bd 8a 49 c2 bd 0a c4 a0 bd
       -0.05339954 -0.0852436 -0.09486683 -0.078498915
000060 8a f6 b9 bd 91 11 d4 3f 2e ec 91 3f 5c 38 d8 3c
       -0.09080227 1.6567861 1.1400201 0.026394062
000070 73 df 1b 40 a0 91 8e 3f 12 ce b9 3f 65 96 21 bf
       2.4355133 1.1138191 1.4516013 -0.6312011
000080 cc 0b 44 3d 82 f7 e5 3d 26 b5 79 3e 51 f2 ac 3d
       0.047862813 0.11228849 0.24385509 0.08444656
000090 4e 2e 22 3d 6b e7 bb 3d a4 73 87 bd 96 0c 0c 3d
       0.03959494 0.09174999 -0.066138536 0.03419169
0000a0 28 65 f8 bc be 9b 8c bd c5 bc ae bd 67 74 4d bd
       -0.030321673 -0.06865643 -0.08532099 -0.050159838
0000b0 d4 dd b8 3c ab b2 b2 bd d0 ac 05 bd 20 86 30 bd
       0.022566713 -0.087254845 -0.03263551 -0.04309666
0000c0 c2 27 b5 bd 31 d4 b1 3d 64 ef 13 3f 3a d8 9b 3c
       -0.08845474 0.086830504 0.57787156 0.019024003
0000d0 9a 73 8d bf 78 8c 50 40 05 06 55 40 3a 35 b4 bf
       -1.1050904 3.2585735 3.3284924 -1.4078743
0000e0 00 02 e7 be be 40 1b bd 62 de 58 3d 03 2e 21 3e
       -0.45118713 -0.03790354 0.052946456 0.15740208
0000f0 ce ea 97 bd ec de a6 bd dc 38 d8 3c a0 b7 96 bb
       -0.07417832 -0.08147988 0.0263943 -0.0045995265
000100 c0 0d 35 bd 92 59 80 bd 03 d7 9a 3d c0 78 40 bc
       -0.044202566 -0.06267084 0.075605415 -0.011747539
000110 50 1a 0d bd 8e a6 33 3d d6 9d 75 3d b2 fc bf bd
       -0.03444892 0.04386001 0.059964977 -0.0937437
000120 34 4d f7 3c e0 22 b3 bd 60 b1 be bb 99 20 35 40
       0.03018818 -0.08746886 -0.0058194846 2.8301146
000130 8a 97 48 40 9a 69 c5 bf 61 1f 00 c0 95 18 66 bf
       3.1342492 -1.5422852 -2.0019152 -0.8988126
000140 be 53 30 bf 9a 8c 56 be c8 62 54 be 3a eb 39 3e
       -0.6887778 -0.20952073 -0.20740807 0.18156138
000150 ed 68 16 3e 1f c4 20 3e 70 a6 17 bd 64 cf 39 3e
       0.14688464 0.15699814 -0.03702396 0.1814552
000160 f8 54 ba bc 73 bc 87 3d c6 fe 89 bd e2 c1 6c 3d
       -0.022745594 0.06627741 -0.06738047 0.05780209
000170 7d 52 bf bd 38 88 88 3c 70 40 6e bc 41 3b b1 3d
       -0.09341905 0.016666517 -0.01454173 0.0865388
000180 46 d9 49 3d 3d aa 73 bd 20 0f 74 bd c0 b8 c1 ba
       0.049279474 -0.059488524 -0.059584737 -0.0014779791
000190 66 d9 91 3f 83 3a 0c 40 d6 36 da 3e 43 a6 0e c0
       1.139447 2.1910713 0.42619962 -2.2288978
0001a0 5e a9 51 bf 7c 54 e6 bf 90 87 17 bf f6 7e 7b bd
       -0.8189906 -1.7994533 -0.59191227 -0.061400376
0001b0 0e 35 2c 3d d3 8e f2 3d 08 8e b9 3c d3 35 26 bd
       0.042042784 0.11843648 0.022650734 -0.040578675
0001c0 7a 0a 2c bd c7 da c0 bd c9 eb ab 3d 80 a1 c1 bc
       -0.04200218 -0.094167285 0.08394582 -0.02363658
0001d0 ed 30 78 bd bf 7b 84 3d 12 fa 6b 3d c0 3c 67 bb
       -0.060593534 0.06468915 0.057611533 -0.0035284013
0001e0 52 de bf bd 7f 7f bb 3d aa 97 70 3d 54 d0 b8 3c
       -0.09368576 0.09155177 0.058738388 0.022560276
0001f0 c7 d9 28 bd f1 12 f1 3f ad de ab 40 d0 77 c9 40
       -0.041223314 1.8833905 5.370932 6.2958755
000200 fa b4 a9 40 1d 39 6d 3d 58 c3 a9 3f 7e 92 9c bd
       5.303342 0.057915796 1.3262739 -0.07645129
000210 bd 30 18 3e 7b 54 c2 bd 41 ee 11 3e a8 d5 0c bc
       0.14862342 -0.094887696 0.14251043 -0.0085958615
000220 fa 05 5f 3d c2 f9 3c 3d 56 be 07 3d 26 5a 0f 3d
       0.05444906 0.046136625 0.033140503 0.03499808
000230 59 df 88 3d bd dc 6a bd 90 b5 1f 3c bd 42 a7 bd
       0.06683225 -0.05733942 0.009747878 -0.08167026
000240 81 13 99 3d 13 0d 39 bd 08 92 a5 bc 09 ff 97 3d
       0.07474423 -0.045178484 -0.020211235 0.07421691
000250 30 c8 55 bc 30 b5 71 bd 25 ec c3 3e 18 00 81 3f
       -0.013048217 -0.059010684 0.382661 1.0078154
000260 69 1c 04 3f 05 8d 3c 3f ee 00 92 3f bc fc 09 3f
       0.5160585 0.7365268 1.1406534 0.5390127
000270 fb 03 ed bd 46 6b 09 be 28 a6 3d 3c 9a d0 50 bd
       -0.11573025 -0.13419828 0.011575259 -0.050980188
000280 ea 1c b1 bd 51 1e ca 3d 00 bf 54 ba 1a 0a 7a 3d
       -0.08648093 0.09869064 -0.00081156194 0.06104479
000290 40 df d1 ba 2a 2f 77 bd 52 01 59 3d 47 94 aa 3d
       -0.0016011968 -0.060347714 0.052979775 0.08329063
0002a0 92 53 7f 3d 00 0d 2a bc be e3 9c bd 88 cb e2 bc
       0.06233556 -0.010379076 -0.07660626 -0.027684942
0002b0 40 96 6e bd 60 e7 98 bc 40 5d 61 3c c5 37 21 be
       -0.05824876 -0.018665016 0.013755143 -0.1574393
0002c0 fa 9e 12 40 24 d9 43 40 fa ce 4e 40 5b 67 f0 3f
       2.2909532 3.0601282 3.2313828 1.8781542
0002d0 2b 3d d0 3f 2c 95 4c be 62 69 85 3e 12 c4 65 3d
       1.6268667 -0.1997878 0.26056963 0.05609519
0002e0 4d 55 77 be 96 55 13 3e 2f d5 af 3d b8 22 de 3d
       -0.24153633 0.14388117 0.085855834 0.10846466
0002f0 6b ba 9e bd 18 c6 a8 bc 68 35 64 bc e7 3f ad bd
       -0.077504 -0.020602271 -0.013928749 -0.08459454
000300 d0 0d 17 3c c2 95 1a 3d 2f fe 9a 3d 56 64 7d 3d
       0.009219602 0.037740476 0.07568013 0.061863266
000310 00 d4 9f 38 81 5e ad 3d b3 90 b5 3d 74 a2 9f bc
       7.621199e-05 0.08465291 0.0886549 -0.019486643
000320 8b e2 ad bf 78 a3 05 40 b6 93 06 40 4d bd 74 3f
       -1.358476 2.0881023 2.1027656 0.9560135
000330 ba f3 f2 3f e7 4a 65 be 77 de a2 be f2 c8 c3 bc
       1.898063 -0.22391854 -0.31810352 -0.02389953
000340 d6 30 0f bd 9b a3 7b be 10 db 6d bc e0 b8 fb bb
       -0.034958683 -0.2457413 -0.014517561 -0.007681951
000350 a3 96 9b 3d f2 f0 09 3d 28 f8 ab 3c f2 39 60 3d
       0.07597091 0.03367705 0.020992354 0.05474276
000360 0a 1e 39 3d 50 c0 f2 bb 16 26 7f 3d da 79 29 3d
       0.045194663 -0.0074081793 0.06229218 0.041375972
000370 58 10 22 bc c3 18 9f 3d 2f 69 cb 3d 19 75 c0 3d
       -0.009891592 0.07768395 0.099321716 0.093973346
000380 dd c0 7a bd 1e ad 78 3f 28 25 43 c0 e8 f9 24 c0
       -0.061219085 0.97139156 -3.0491428 -2.577753
000390 fb 17 43 c0 2f 8a 60 c0 79 9e 1d c0 f7 7c 04 c0
       -3.0483387 -3.508434 -2.4627974 -2.0701272
0003a0 f7 8f d0 3e 00 6f 30 ba 25 44 a0 3d c4 f7 fb 3c
       0.40734836 -0.00067304075 0.078254975 0.030757792
0003b0 e9 d4 a5 3d 40 a0 01 bd 70 e2 44 bd cf 0f c6 3d
       0.0809725 -0.031646967 -0.04806751 0.09670984
0003c0 1d e3 83 bd ff f6 8a 3d ed 4e c0 3d 39 ee c6 3d
       -0.06439803 0.06785392 0.09390054 0.09713406
0003d0 88 b2 c5 bd 47 86 5e bd e2 99 54 3d 60 f6 66 bb
       -0.09653193 -0.054327276 0.051904567 -0.0035242066
0003e0 04 71 11 bd 7e d3 1d 3d 16 1d 04 3f 81 89 02 be
       -0.03550817 0.038531773 0.5160688 -0.12747766
0003f0 1e 24 8c 40 b7 7f a1 40 6d 82 3f 40 a5 23 22 3f
       4.379409 5.04684 2.9923356 0.6333564

lstm.weight_hh_l0 f4 [400, 100]
000000 8c 6b a6 3c 6c 74 97 3c 07 02 bf 3d 68 11 c8 3c
       0.020314954 0.018488131 0.093265586 0.024422362
000010 9b c6 c6 3d cc da c9 3c 70 b6 06 3c 5a 33 43 bd
       0.0970585 0.024640463 0.008222207 -0.047656395
000020 48 b3 da bc 1b 7e ad 3d 5c 10 ea 3c b7 75 a1 3d
       -0.026696816 0.08471318 0.028572254 0.078837804
000030 92 56 1c 3d b2 c6 80 bd 0d 60 a1 bd 58 34 7f 3c
       0.038168497 -0.06287898 -0.07879648 0.015576445
000040 bb 18 9f 3d 6c 7d a2 bc a6 fc 3b 3d 51 7d 84 3d
       0.07768389 -0.019835196 0.04589524 0.06469215
000050 1c 56 e0 3c df 33 c3 3d 50 c6 08 bc c2 a6 9b bd
       0.02738481 0.09531378 -0.008348063 -0.07600166
000060 f9 b5 a7 3d 2a 3b 8f bd fe 9d 7c 3d a7 d0 b4 bd
       0.081890054 -0.069937065 0.06167411 -0.0882886
000070 2f 75 c3 bd bb ab b2 3d fb ca c3 3d a8 12 56 3c
       -0.09543835 0.08724161 0.095602 0.013065971
000080 d8 75 fb bc 08 aa a6 bd e8 37 1e 3c 54 68 9f 3c
       -0.03069584 -0.081379 0.009656884 0.019458927
000090 d2 61 08 3d 64 b3 16 bd 20 5e 9a bb 7a 6f 54 bd
       0.033296414 -0.036792174 -0.0047109276 -0.051864125
0000a0 7a 6e 30 3d 0a 71 24 3d 00 41 ad 3c 29 98 9e 3d
       0.04307411 0.040146865 0.021149158 0.07743866
0000b0 52 4d 1d 3d f9 42 c9 3d 58 ce 51 bc 1d d1 19 bd
       0.038403817 0.09827227 -0.012805544 -0.03755294
0000c0 34 dc 94 3c 94 49 91 3c a9 c2 a4 3d ee 93 01 3d
       0.018171407 0.01773528 0.08044941 0.031635217
0000d0 18 b0 30 bc 7a 8d 87 bd 76 fa 00 3d a7 f8 8f 3d
       -0.0107841715 -0.066187814 0.03148886 0.070298485
0000e0 98 74 4a bc ab 3b b5 3d 26 99 a4 bd 98 f3 0e bc
       -0.0123569 0.088492714 -0.08037023 -0.008725069
0000f0 ad 68 84 3d 28 0b 3a 3c d5 48 c4 3d b0 59 6a bc
       0.06465278 0.011355199 0.09584204 -0.01430361
000100 bf 56 9b 3d a4 53 d7 3c 17 2b 78 bd a6 0d 2a 3d
       0.07584905 0.026285 -0.06058797 0.041516922
000110 53 1c 95 3d 61 4f 8a 3d 7a ac 2a bd 20 7d 86 bb
       0.07280793 0.067534216 -0.041668393 -0.0041042715
000120 84 81 dd 3c da 1a b3 bd c4 0c f3 3c f9 4b 99 3d
       0.027039297 -0.08745356 0.029669173 0.07485194
000130 78 df 82 3c ca db 05 bd 75 83 b7 bd 82 f5 0c 3d
       0.015975699 -0.03268031 -0.0896062 0.034413822
000140 18 88 7f bc c7 0a 8f 3d f2 09 19 3d c4 12 d2 3c
       -0.015596412 0.069844775 0.037363 0.025643714
000150 b5 13 93 3d 81 37 a4 3d 60 98 c3 bd e4 2b 15 bd
       0.07181493 0.08018399 -0.095505476 -0.03641881
000160 18 ed 93 bc 97 5c 7a bd 14 dc 92 3c e1 9c 95 3d
       -0.018057391 -0.061123457 0.017927207 0.07305313
000170 28 6d 45 bc 40 17 32 3c 27 ed 58 bd 60 f4 a9 bc
       -0.012049951 0.010869801 -0.05296054 -0.02074641
000180 e0 bb a9 3c f0 6b 9f bd 1a 35 c9 bd de 96 5b 3d
       0.020719469 -0.07784259 -0.098245814 0.053610675
000190 2b 44 ca 3d 77 79 23 bd 79 29 a1 3d 34 2b a9 bc
       0.09876283 -0.03991076 0.078692384 -0.020650484
0001a0 11 fe c3 3d 33 cf 6a bd c0 d8 e7 bc 80 ab 8f 3a
       0.09569944 -0.057326507 -0.028301597 0.0010961145
0001b0 72 8a 93 bd 08 06 dd bc a2 87 99 bd 15 72 b9 bd
       -0.07204141 -0.026980415 -0.07496573 -0.090549625
0001c0 6a 34 1b bd ad 6d 9c 3d a1 b7 aa 3d 5e 1a 87 bd
       -0.037891783 0.076381065 0.08335806 -0.06596826
0001d0 e2 1e 7a 3d dd ef 1c bd 58 ac 75 bc 84 7e e4 3c
       0.06106461 -0.03831469 -0.014994703 0.027892359
0001e0 2d 25 ab 3d f0 95 50 bc 40 0e 5b 3b 78 bc bb bc
       0.083567 -0.01273106 0.0033425242 -0.022917017
0001f0 24 3c f8 3c 40 49 c2 bd d3 26 52 bd c0 7f 08 3c
       0.030302115 -0.094866276 -0.051306557 0.008331239
000200 0e 8f aa bd 00 28 8c 39 d0 6c 46 bd f0 10 07 bc
       -0.08328067 0.00026732683 -0.048443615 -0.008243784
000210 8f 7e a4 3d 19 6f ad 3d 47 92 5b bd 9f 9b a8 3d
       0.08031952 0.08468456 -0.053606298 0.08232807
000220 c8 7c b2 bc cd 2f ab 3d 17 96 21 bd 63 4a 8e 3d
       -0.021788016 0.08358727 -0.039449777 0.06947782
000230 bc 38 d3 3c 0a 37 3b bd f6 a7 30 3d 40 70 b6 bc
       0.025783889 -0.045706786 0.04312893 -0.022270322
000240 e4 df f8 3c 1a 0c 4f 3d ca ea b3 bd 71 b9 96 3d
       0.030380197 0.05054865 -0.08785017 0.07359589
000250 35 80 81 bd e8 a0 66 bc 3d 4d bc 3d 90 84 4f 3c
       -0.06323282 -0.014076449 0.091944195 0.012665883
000260 69 26 c3 3d cc 18 a4 bc 80 73 bb ba c5 1d 83 3d
       0.095288105 -0.020031355 -0.001430139 0.064021625
000270 33 af 1f bd b7 15 c6 bd 29 d0 a9 3d f3 a3 ba 3d
       -0.038985442 -0.096721105 0.082916565 0.09113302
000280 b8 db c1 3c e9 23 8b 3d 2d f1 3b bd 3a 06 3e 3d
       0.02366434 0.06793959 -0.0458843 0.046392657
000290 fa 95 5d 3d 2e 33 9c bd 22 a4 5e 3d 28 cc 34 3c
       0.054098107 -0.07626949 0.054355748 0.011035003
0002a0 80 7a 89 bc fb ec 99 bd f7 ec 93 3d 30 b4 0b bd
       -0.016782045 -0.075159036 0.07222932 -0.034107387
0002b0 c0 d7 14 bb 5f 02 b2 bd 35 13 9d bd bf f8 a1 3d
       -0.0022711605 -0.086918585 -0.07669679 0.07908773
0002c0 d0 f9 ce bb e0 b8 9b bb c2 81 53 3d b9 c1 9a 3d
       -0.006316401 -0.0047522634 0.05163742 0.07556481
0002d0 02 26 6a 3d f9 2d 9e 3d 9c d6 ef 3c b9 eb b0 3d
       0.057165153 0.07723612 0.029277138 0.086387105
0002e0 58 db 37 bc 18 e1 00 bc 00 80 ce b9 2d 1d a3 3d
       -0.011221729 -0.0078661665 -0.0003938675 0.07964549
0002f0 19 3a 84 3d c3 78 92 3d 52 9c 6b 3d 18 a0 06 3c
       0.06456394 0.0715194 0.057522126 0.00821688
000300 6d 9d b0 3d c6 72 38 3d a4 3d ff 3c 2c dd d8 3c
       0.086237766 0.04503133 0.031157322 0.02647265
000310 27 0f ba 3d 4b f6 a3 bd 18 78 37 3c 8d f6 8e 3d
       0.09084921 -0.08005961 0.011198066 0.069806196
000320 fc db e4 3c cd 60 9d 3d 09 b9 a7 3d 11 3d b4 3d
       0.027936928 0.07684479 0.081895895 0.0880071
000330 2b 02 ac 3d e0 43 87 bc 48 fe 85 bd 80 e6 5c bc
       0.08398851 -0.016511858 -0.06542641 -0.01348269
000340 89 36 a5 3d 40 61 37 bc 87 62 2c bd ac 5b 14 bd
       0.080670424 -0.01119262 -0.04208615 -0.036220238
000350 1a 8a b0 bd 05 0c a3 bd 94 3e 02 bd 00 88 b4 bd
       -0.08620091 -0.07961277 -0.03179796 -0.088150024
000360 2d d7 70 bd 4d ad a5 bd c0 2d 64 bc 00 a5 64 3c
       -0.058798958 -0.08089695 -0.013926923 0.013955355
000370 b0 f2 a2 bd 30 aa a7 3b 4a ba 5e bd 45 40 c0 3d
       -0.07956445 0.0051167235 -0.054376878 0.093872584
000380 e3 e3 81 3d f2 85 25 3d 8c 9b c0 bc 47 08 9f 3d
       0.06342294 0.040410943 -0.02351167 0.07765251
000390 da 9b 0c bd 8f f2 b9 bd e8 ca e0 bc 26 7c 38 3d
       -0.03432832 -0.090794675 -0.027440503 0.045040272
0003a0 bc 61 f6 3c 3d be 43 bd 58 50 cc 3c c8 e7 9b bc
       0.0300759 -0.047788847 0.024940655 -0.01903142
0003b0 69 96 85 3d da 98 33 3d 12 9a 09 3d ea 7b 05 3d
       0.06522829 0.043846942 0.0335942 0.032588877
0003c0 50 07 73 bd 85 83 a7 3d 62 bf 7a 3d 40 2f 9f 3a
       -0.059333146 0.08179382 0.061217673 0.0012144819
0003d0 b0 5e 91 bd e9 84 85 3d 01 f1 97 3d a0 96 76 3b
       -0.07098138 0.06519491 0.07419015 0.00376264
0003e0 9a 40 b2 bd a2 a1 a3 bd 80 ff 79 bd 26 b0 53 3d
       -0.08703728 -0.079898134 -0.06103468 0.05168166
0003f0 ec f8 fb 3c da 20 10 3d d6 03 2f 3d 7e 85 0f 3d
       0.030758344 0.03518758 0.042728268 0.035039417

lstm.bias_ih_l0 f4 [400]
000000 42 d7 de 40 4e e0 01 41 7c e9 03 c1 8f 0d 54 3f
       6.9637766 8.117262 -8.244503 0.8283319
000010 d5 31 43 40 56 50 f2 bf 9f cf c5 40 d6 e1 f6 bf
       3.0499165 -1.8930767 6.1815944 -1.928767
000020 a2 8b 6d 3f ee 4e 32 40 61 d0 09 c1 45 e5 6e 40
       0.9279119 2.7860675 -8.613374 3.7327435
000030 7d 14 ec 40 ba 7c cd 40 c8 5a 91 3f 52 50 62 40
       7.377501 6.4214754 1.1355829 3.5361524
000040 6c 6d 22 c0 d3 a9 ae 40 c3 a6 65 40 ca cc f0 c0
       -2.5379286 5.4582305 3.5883033 -7.5249987
000050 25 d2 74 40 fe fd 19 41 3d 6a 5d 40 f1 41 a0 c0
       3.8253262 9.62451 3.4596093 -5.0080495
000060 8d d9 72 40 1d ce fc c0 8c cd 61 40 5b f2 8c 40
       3.7945282 -7.9001603 3.5281706 4.4045844
000070 c7 5e 85 3f 1f 3f 0b 41 e9 3b 11 40 b3 07 dd 40
       1.0419549 8.70291 2.2692816 6.90719
000080 32 ec 47 3d 8e f3 37 40 f8 a5 d9 3f 1d 7d a8 40
       0.048809238 2.8742404 1.7003775 5.2652726
000090 89 05 ee be 80 71 70 bf 32 45 93 3f a0 33 83 40
       -0.46488598 -0.9392319 1.1505492 4.100052
0000a0 f8 ee 86 40 ec 14 08 40 21 34 bb 40 8e ed e7 40
       4.216671 2.126277 5.8501134 7.2477484
0000b0 1f 67 df 40 28 8e 83 3e 01 ae 49 40 55 56 f6 40
       6.981338 0.25694394 3.1512454 7.6980386
0000c0 43 fc 41 40 8a 10 f7 40 e8 bd ca 3f 69 d4 bc 3f
       3.0310218 7.720769 1.5839205 1.4752322
0000d0 39 a3 03 41 c2 7a 4a bf b7 bd 81 40 40 f2 28 40
       8.227349 -0.79093564 4.0544086 2.6397858
0000e0 9d 44 ff bf 1d 3d ca be 4f 90 89 40 ec b5 9a 40
       -1.9942814 -0.3949975 4.298866 4.8347073
0000f0 f4 fe 78 40 a6 34 12 40 12 91 65 3f 63 c8 ea be
       3.890561 2.2844634 0.89674485 -0.45856008
000100 7a 80 94 40 f2 d7 6f c0 2f 0d a8 40 bc e9 ae bf
       4.640683 -3.7475553 5.2516093 -1.366508
000110 97 13 44 c0 e8 32 a6 3f e2 a8 0b 41 93 b6 b8 bf
       -3.0636957 1.2984285 8.728731 -1.4430717
000120 af 92 cd 40 0a 2e 5f bf 8d 38 16 40 cc cc d3 40
       6.4241557 -0.87179625 2.3472016 6.6187496
000130 94 58 d2 c0 b4 83 a0 40 6d d7 f6 40 08 fe 54 40
       -6.5733128 5.016077 7.713797 3.3280048
000140 01 5d 88 40 e2 e4 d4 3f 41 bf 91 40 48 49 94 3f
       4.261353 1.663235 4.5545964 1.1584864
000150 1c 78 d5 c0 e1 8f c2 3f 87 d6 8c 3e d4 5b 89 40
       -6.670912 1.5200158 0.2750742 4.2924595
000160 eb 9c dd 3e 1e f0 86 40 ea f6 35 40 3f 02 ca 40
       0.4328378 4.216811 2.8431954 6.312774
000170 ec 89 c9 40 5b aa 76 c0 e0 6b e5 40 29 30 5d c0
       6.298086 -3.8541477 7.1694183 -3.4560645
000180 42 0e 8f c0 ea f6 cd 40 b0 a1 d7 3f 08 8f cd 3f
       -4.4704905 6.436391 1.6846218 1.6059275
000190 c0 36 71 3c b9 2b b4 3d e8 5e 53 bc 97 8c bc bd
       0.014722526 0.08797402 -0.012901045 -0.09206503
0001a0 41 d3 80 3d 86 cb 08 3d 7d ff ab bd 17 b4 5d bd
       0.062902935 0.03339722 -0.0839834 -0.054126825
0001b0 02 51 38 3d aa 09 2c 3d 79 80 86 3d a7 d6 26 bd
       0.04499913 0.042001404 0.06567473 -0.040732052
0001c0 b8 6e a4 bd 8c e9 9a 3c 18 2a 89 bc c8 b2 c3 bd
       -0.080289304 0.018910192 -0.016743705 -0.09555584
0001d0 a8 15 15 3c 54 c2 ba bc 20 7f 9c bd 2c e2 e7 bc
       0.0090994015 -0.022797741 -0.07641435 -0.02830609
0001e0 12 a3 a3 bd 99 39 a5 3d e6 24 a1 bd b4 d6 80 bd
       -0.079900876 0.080676265 -0.07868366 -0.06290951
0001f0 40 f4 1c bb 2a b2 91 bd 8b 19 a4 3d ba 7b 91 bd
       -0.0023949295 -0.0711406 0.080126844 -0.07103677
000200 32 d5 18 3d 60 66 30 bd 82 99 0f 3d c0 64 fa bc
       0.037312694 -0.043066382 0.035058506 -0.03056562
000210 ab 29 91 3d 8b 46 bb bd d0 87 b3 bb 20 31 45 bd
       0.07088026 -0.091443144 -0.0054788366 -0.048142552
000220 ae 8f a7 bd 80 22 9d bd 5b b4 c6 3d 41 cb b1 3d
       -0.081817016 -0.07672596 0.09702369 0.08681346
000230 c0 40 be ba 78 75 c6 3c d4 00 cd bc 1d 6e 8f 3d
       -0.0014515147 0.024225935 -0.025024809 0.07003424
000240 f8 da a8 3c 60 e6 9b bd bd 53 82 bd d4 74 ad 3c
       0.020612225 -0.076123 -0.06363628 0.021173872
000250 da 9f ac bd b1 bb bb 3d ea e2 c4 bd 77 cd 96 3d
       -0.08428927 0.09166659 -0.09613593 0.07363408
000260 e0 1b f7 bc 42 66 46 3d 92 84 67 3d a0 27 32 bd
       -0.030164659 0.048437364 0.056522913 -0.04349482
000270 e0 28 b4 bb 28 b4 82 bd 7d cc 92 bd 7a 57 0c 3d
       -0.0054980367 -0.06382018 -0.07167909 0.03426311
000280 86 3a 4e 3d a8 44 84 bc 94 01 b5 3c b6 67 3f 3d
       0.05034878 -0.01614602 0.02209548 0.046729766
000290 da fd 60 bd 59 4e 9b 3d 2e 66 48 3d 32 f1 ae bd
       -0.05492959 0.07583303 0.04892557 -0.08542098
0002a0 50 e6 9c bd b4 a3 d3 3c c8 73 af bc 2a bc 8f bd
       -0.07661116 0.025834896 -0.021417513 -0.07018311
0002b0 98 e0 05 bc 40 80 c9 3c 94 f8 a9 3c 00 0c a9 38
       -0.008171223 0.024597287 0.020748414 8.060783e-05
0002c0 ed ad 70 bd 80 15 a4 3b 35 97 b1 3d ec de 9f 3c
       -0.05875962 0.005007446 0.086714186 0.019515477
0002d0 30 b9 db bb c6 68 36 3d 43 98 90 bd dd 43 c7 bd
       -0.0067054257 0.044533513 -0.070602916 -0.09729741
0002e0 fd 5d b8 bd f0 80 52 3c 49 dc c9 3d 60 b3 c6 3b
       -0.09002302 0.012848124 0.09856469 0.0060638636
0002f0 5d e9 a0 bd 22 13 4e 3d e2 f2 9a bd a2 b3 2a 3d
       -0.078570105 0.050311215 -0.075658575 0.041675217
000300 84 34 e0 3c 60 32 d0 bb 98 4e 8a bc 6c b9 f6 bc
       0.027368791 -0.0063536614 -0.01688318 -0.030117713
000310 71 19 ab 3d 12 32 71 3d e2 8e 39 3d 20 a3 70 bd
       0.08354462 0.05888564 0.04530228 -0.058749318
000320 9e 3f ca bf d5 88 bc c0 1d f5 5b 40 90 ae e4 3f
       -1.5800664 -5.891703 3.4368355 1.7865772
000330 59 8d f3 bf 09 8b 3b c0 96 62 5b 40 34 73 d6 3f
       -1.9027511 -2.930361 3.4278922 1.6753907
000340 51 25 15 40 67 53 a4 bf dd 1f 08 c0 ab 61 1e 40
       2.3304026 -1.2837952 -2.1269448 2.4747112
000350 0c f1 a4 bf e3 a4 82 40 e7 e4 0a 40 77 00 0d c0
       -1.2886062 4.082628 2.170221 -2.2031534
000360 3b ef bd 3f 98 b9 2b 40 8a a9 38 bf 22 2b 68 40
       1.4838632 2.6832027 -0.72133696 3.6276326
000370 e4 09 5a 40 f2 58 15 40 a8 22 11 3f 82 07 e1 bf
       3.4068537 2.3335538 0.56693506 -1.7580416
000380 9f 6c 91 40 50 2e c9 bf 30 41 53 c0 8d 03 75 40
       4.5445094 -1.5717258 -3.3008537 3.8283417
000390 09 21 00 c0 06 af a6 bf 9f 0d fb bf 17 b1 35 3e
       -2.0020163 -1.3022163 -1.9613532 0.17743336
0003a0 6e 32 f5 bf bf 11 cf bf ed 7e e6 3f 7e 66 eb be
       -1.9156015 -1.6177291 1.8007485 -0.45976633
0003b0 b1 c7 e5 be 23 d7 db 3f 86 4c 6f 40 f6 cd 79 40
       -0.44878915 1.717503 3.7390456 3.9031959
0003c0 68 9c 76 3f 09 c9 31 40 61 ed 90 40 4a bc 75 c0
       0.96332407 2.7778952 4.528977 -3.8396173
0003d0 0f 7a 04 3f 0a b8 1b c0 37 30 81 c0 84 00 31 40
       0.51748747 -2.4331079 -4.0371356 2.7656565
0003e0 8e e3 31 c0 46 f7 19 40 e7 86 d0 bf 9a 7e eb 3f
       -2.7795138 2.4057174 -1.6291169 1.8398011
0003f0 58 c1 09 c0 1a 66 a0 3f 84 43 b5 bf 62 7e c9 bf
       -2.1524258 1.2531159 -1.4161229 -1.5741694

lstm.bias_hh_l0 f4 [400]
000000 5e d6 db 40 2a 8c 01 41 58 c4 03 c1 7e db 46 3f
       6.869918 8.09672 -8.2354355 0.7767867
000010 24 c4 40 40 60 78 e9 bf 59 8e c4 40 fe f9 01 c0
       3.0119715 -1.823986 6.1423764 -2.0308833
000020 3c ee 85 3f c8 f3 30 40 20 83 09 c1 03 6b 73 40
       1.0463328 2.7648792 -8.594513 3.8034065
000030 e7 cf eb 40 20 0d c9 40 9c 70 81 3f 12 db 62 40
       7.3691287 6.282852 1.0112491 3.544621
000040 b4 97 26 c0 bb ca b0 40 77 af 6c 40 f2 ec f6 c0
       -2.6030092 5.5247474 3.6982095 -7.716424
000050 a3 f4 7b 40 6a e2 1b 41 e1 6e 5c 40 6f e8 9f c0
       3.9368064 9.742777 3.4442675 -4.9971232
000060 99 a7 6f 40 0e f3 fc c0 00 a5 69 40 55 90 91 40
       3.7446043 -7.90467 3.6506958 4.5488687
000070 c7 d1 90 3f 7b 88 0c 41 8d c2 07 40 3b 90 de 40
       1.1314019 8.78332 2.1212494 6.9551063
000080 28 28 34 3d c0 3b 32 40 b8 39 dc 3f 55 41 a8 40
       0.04398361 2.7848969 1.7205114 5.257975
000090 e8 c8 c5 be 31 cc 85 bf 50 3f 86 3f 11 03 86 40
       -0.38629842 -1.0452939 1.0488071 4.1878743
0000a0 97 39 8c 40 aa 81 06 40 a9 dc ba 40 36 d3 e7 40
       4.38203 2.101664 5.839436 7.2445326
0000b0 73 e5 df 40 8b fc 7c 3e 4b a0 50 40 e5 d3 f4 40
       6.996759 0.24705712 3.2597835 7.650866
0000c0 4b f0 43 40 de 81 fb 40 12 1c cc 3f df e4 ad 3f
       3.0615413 7.859603 1.5946066 1.3585471
0000d0 76 24 03 41 52 a5 4b bf e5 76 85 40 6c bc 27 40
       8.196402 -0.79549134 4.1707635 2.6208754
0000e0 5c 76 04 c0 8d ba ca be 52 85 8a 40 c6 6b 97 40
       -2.069724 -0.39595452 4.3287745 4.731906
0000f0 4e 67 6e 40 6c 51 18 40 87 bf 67 3f f6 df 16 bf
       3.7250552 2.3799696 0.9052662 -0.5893549
000100 fa 3b 92 40 8e c8 6f c0 11 19 a3 40 62 e4 aa bf
       4.5698214 -3.746616 5.09681 -1.3350947
000110 df e2 3e c0 4c 09 a6 3f 06 be 0a 41 ef 61 b4 bf
       -2.982597 1.2971587 8.671392 -1.4092387
000120 4d bf ca 40 7f fd 52 bf cd a1 17 40 e0 b8 d4 40
       6.335852 -0.82418054 2.3692505 6.6475677
000130 fc 64 ce c0 aa 74 9f 40 8f 46 f8 40 04 e2 4d 40
       -6.449827 4.982991 7.758613 3.21692
000140 0e 6d 85 40 f2 67 d4 3f 89 62 92 40 8a 4b 9b 3f
       4.1695623 1.6594222 4.574528 1.2132428
000150 f0 5e da c0 36 1c cb 3f 80 29 7d 3e 8d a4 86 40
       -6.824089 1.5867984 0.24722862 4.207587
000160 cf c7 01 3f 0f ea 89 40 ba 41 3e 40 05 c5 ca 40
       0.5069551 4.3098216 2.9727616 6.33655
000170 da 52 c7 40 1b c7 74 c0 1e af e0 40 67 de 58 c0
       6.2288637 -3.8246524 7.0213766 -3.3885744
000180 94 65 8d c0 74 ff cb 40 e0 21 d9 3f b9 e7 cc 3f
       -4.4186497 6.3749332 1.6963463 1.6008216
000190 bb 86 af 3d 68 c7 9f bc be 7b 30 3d ec 12 01 bd
       0.0857062 -0.019504264 0.04308676 -0.031512186
0001a0 47 28 a2 3d 9c 0f d0 3c 42 97 09 3d 68 06 b5 3c
       0.079178385 0.025398068 0.033591516 0.022097781
0001b0 66 05 49 3d 1a d3 05 bd 34 0f d0 3c 00 59 b6 3b
       0.049077414 -0.032672025 0.025397874 0.005564809
0001c0 d8 63 30 3c 32 52 8e bd 84 92 e3 3c 50 ef 10 bd
       0.010765992 -0.06949271 0.027779825 -0.035384476
0001d0 68 05 b4 bc d4 55 ea 3c 57 da 38 bd 56 a4 70 3d
       -0.021975234 0.02860538 -0.0451301 0.058750473
0001e0 ed cb 7b bd d9 31 c4 3d 30 08 d6 bb d7 78 51 bd
       -0.061473776 0.0957982 -0.0065317377 -0.051140632
0001f0 30 67 37 bc b2 b8 2b 3d 63 6e 73 bd dd d9 57 bd
       -0.011194035 0.041924186 -0.059431445 -0.052698005
000200 b0 32 6f bc 84 08 00 bd 8c 7d c5 3c 4c 03 89 3c
       -0.014599487 -0.03125812 0.024107717 0.016725205
000210 0a 11 95 bd 1b 98 96 3d 0d ff c4 bd 74 e1 86 bd
       -0.072786406 0.073532306 -0.096189596 -0.065859705
000220 bd 31 81 3d 81 f6 89 3d 68 fe fc bc 80 b8 b4 ba
       0.06308315 0.0673647 -0.03088303 -0.0013787895
000230 7a cd 15 3d 18 5f a7 bc cc f4 18 bd 0a 76 40 3d
       0.03657291 -0.020431086 -0.03734283 0.04698757
000240 e6 ec 80 bd 28 55 9c bd 1d 1b aa 3d 59 20 ad 3d
       -0.06295185 -0.0763343 0.08305953 0.084534355
000250 00 b6 88 bc 58 4c 91 bc 30 97 90 bd 90 50 87 bd
       -0.016688347 -0.017736599 -0.07060087 -0.06607163
000260 c0 07 8f bd 61 08 a8 3d f5 21 b1 bd 73 f2 a4 3d
       -0.069839 0.08204723 -0.08649055 0.08054056
000270 08 3b bc 3c 70 bc ca bd a5 7e 8d 3d bd 8c c5 3d
       0.022977367 -0.09899223 0.06908921 0.09645984
000280 00 90 fd ba e8 f6 aa 3c 68 db d6 bc 51 19 94 3d
       -0.0019345284 0.020869687 -0.026227668 0.07231391
000290 ac 73 0f bd b8 ab cb bc 80 ea cc 3a a0 80 9f bd
       -0.035022423 -0.024862155 0.0015633851 -0.07788205
0002a0 2b 74 b9 bd de 13 3d 3d 88 c6 be bc f3 81 24 bd
       -0.090553604 0.046161525 -0.023288026 -0.04016299
0002b0 40 09 b4 bc d4 9f fd bc ef a8 af bd 12 77 0b 3d
       -0.021977067 -0.030960001 -0.085771434 0.0340491
0002c0 5a 6a 76 bd 24 0d fb 3c a0 36 7a bb d0 9d a0 bd
       -0.06016002 0.030645914 -0.0038179532 -0.078426
0002d0 54 84 fd bc fe 6c 71 3d 8d 1e a8 bd ef 71 ba 3d
       -0.030946888 0.058941834 -0.08208952 0.09103762
0002e0 80 36 ad 3c 54 01 82 bd 97 8d 29 bd d4 8d df 3c
       0.021144152 -0.063479096 -0.041394796 0.027289309
0002f0 37 dc 2a bd ec f4 ea bc d7 74 bc 3d a0 f3 98 bb
       -0.04171392 -0.028681241 0.09201973 -0.0046677142
000300 d8 1c 0a 3c 15 2d cc 3d a0 dd 6d 3b 18 13 06 3c
       0.008429728 0.09969536 0.003629543 0.008183263
000310 30 ff 7c bd 94 21 de bc 52 c6 08 3d a7 fe a7 3d
       -0.061766803 -0.02711562 0.033392258 0.08202868
000320 64 08 c3 bf c9 9f b9 c0 55 06 54 40 5a 1f d3 3f
       -1.5236936 -5.800755 3.3128865 1.6493943
000330 c6 3b fd bf bb 6b 42 c0 a4 af 66 40 0e 22 d3 3f
       -1.9783866 -3.0378253 3.6044703 1.6494768
000340 bb 80 11 40 7e 01 a2 bf e3 16 0c c0 ed 43 21 40
       2.273482 -1.2656705 -2.188897 2.5197709
000350 e2 e9 96 bf 3e 14 81 40 c3 c6 0d 40 29 58 11 c0
       -1.1790125 4.033721 2.2152565 -2.2710059
000360 e2 da c1 3f 8a b5 22 40 f0 ff 3f bf 8c 9a 63 40
       1.5144923 2.5423303 -0.74999905 3.5563078
000370 64 2f 59 40 8e 40 10 40 2d 2c 2a 3f 2a f1 d6 bf
       3.3935175 2.25394 0.66473657 -1.6792347
000380 b3 ff 92 40 4e 24 d5 bf 8c 14 50 c0 77 b8 72 40
       4.5937133 -1.6651704 -3.251254 3.7925088
000390 37 96 fc bf fc dc b2 bf 27 71 ef bf 9b fd 8b 3e
       -1.9733342 -1.3973689 -1.8706406 0.27341923
0003a0 94 1c f3 bf 3f ea db bf e1 7d f9 3f c6 f9 b9 be
       -1.8993096 -1.7180861 1.949154 -0.36323375
0003b0 81 cd fe be a3 08 ec 3f 3a 4e 6a 40 7c 47 79 40
       -0.49766162 1.8440136 3.6610246 3.894988
0003c0 04 91 4d 3f fb 1a 2e 40 d4 cc 8f 40 94 ed 77 c0
       0.802994 2.7203968 4.4937534 -3.8738756
0003d0 08 a7 2b 3f 8e d7 16 c0 ee bf 79 c0 10 b3 32 40
       0.67051744 -2.3569064 -3.9023395 2.792179
0003e0 ea e5 37 c0 16 99 1a 40 f1 10 d0 bf 62 08 ee 3f
       -2.8734078 2.4155936 -1.625517 1.8596308
0003f0 32 dc 0c c0 38 9e 9b 3f a2 41 bc bf a8 9a ce bf
       -2.2009397 1.215766 -1.470753 -1.6140947

lstm.weight_ih_l1 f4 [400, 100]
000000 a2 fb 19 bf d9 98 ba 3f d4 bb 0d c0 97 70 b8 bd
       -0.60149586 1.4577895 -2.214589 -0.0900585
000010 6e a3 2b c0 d9 df 51 3f 24 66 e7 3e 01 d6 38 40
       -2.68185 0.8198219 0.45195115 2.8880618
000020 4c aa 4c bd 13 5a 98 3f 48 ed 00 c0 51 c5 6a 40
       -0.049967095 1.1902488 -2.0144825 3.6682932
000030 49 59 5e 3f 46 31 08 c0 c1 f5 14 3f 7c 91 e8 3f
       0.8685499 -2.1280074 0.5818749 1.8169398
000040 01 2f 2e bc d0 dc 8b c0 d4 a5 19 3e ab fa 9e c0
       -0.010631324 -4.3707047 0.15004665 -4.968099
000050 17 67 9f bf 5d a8 a7 c0 60 10 5c c0 af e4 08 40
       -1.2453336 -5.239302 -3.4384995 2.1389577
000060 89 dd 6c 40 7c 48 68 bf 96 f7 39 c0 31 be 46 c0
       3.7010214 -0.907356 -2.9057364 -3.1053584
000070 e3 4d e8 bf 7e be cb be 4f 03 5f 3f 2d df 1b c1
       -1.8148769 -0.39793772 0.87114424 -9.741986
000080 a3 43 0c c0 8d 87 ac be 78 58 54 c0 83 dd 34 bf
       -2.1916282 -0.33697167 -3.3178997 -0.706505
000090 c8 c5 84 40 06 2b 4d c1 e4 4c c2 3f c8 3b d1 c0
       4.149143 -12.823004 1.5179715 -6.5385475
0000a0 fe bc 46 40 6d 3f 9d 3f 60 e6 3a 40 8e 45 c6 be
       3.1052852 1.2284981 2.920311 -0.3872494
0000b0 f6 ee 43 40 ae d2 92 c0 6c 01 3f 41 4e 86 b1 c0
       3.06146 -4.5882177 11.937847 -5.5476446
0000c0 65 c5 d2 40 01 2f e3 c0 c4 cb 14 40 ac 50 12 c0
       6.586596 -7.099488 2.3249369 -2.2861738
0000d0 68 7c e4 40 12 c7 cf 3d 80 18 cc c0 21 a6 dd 40
       7.1401863 0.101453915 -6.3779907 6.9265294
0000e0 74 64 c4 40 dd ae e1 be 48 fb 44 bf 51 eb a3 40
       6.1372623 -0.44078723 -0.76945925 5.122475
0000f0 c2 b1 97 3e a4 cb 3e c0 75 3c fd 3f f1 36 9e bf
       0.29627806 -2.9811792 1.9784075 -1.2360517
000100 93 13 f7 c0 b4 b0 07 40 65 ca f8 3f fe e7 17 40
       -7.7211394 2.12016 1.9436766 2.3735347
000110 e8 9c 3a c0 24 ea 27 3f 74 2f c9 bf df 1c 6b 3e
       -2.9158268 0.65591645 -1.5717607 0.22960232
000120 e4 ff 94 bf 2f bf 01 c0 28 5e 8b bf 75 32 89 bf
       -1.1640592 -2.027294 -1.0888109 -1.0718523
000130 92 af 24 40 fe d3 30 3f 31 98 6f c0 f4 58 e1 3f
       2.573216 0.69073474 -3.743664 1.7605271
000140 a5 68 93 c0 1d d7 d1 3f 02 49 82 40 89 6f 19 40
       -4.606524 1.6393772 4.071412 2.3974326
000150 3b 62 2a c0 fa da ab 40 0d 14 69 40 a9 48 a8 3e
       -2.6622455 5.3704805 3.6418488 0.32867935
000160 cb 77 c8 3f e0 a7 77 40 a6 99 e0 3f de 8f b5 40
       1.5661558 3.8696213 1.754689 5.673812
000170 5c 21 56 c0 b5 1f f7 40 9d 37 67 c0 46 f8 4f c0
       -3.345786 7.7226205 -3.6127694 -3.2495284
000180 a5 0d 9a be ae ae 04 c1 42 40 49 c1 bd b8 b5 40
       -0.30088535 -8.292646 -12.578188 5.678801
000190 19 14 d5 3e 64 03 7e be 9b d6 c7 be c7 11 64 be
       0.41616896 -0.24805981 -0.39030918 -0.22272407
0001a0 d1 88 ef 3e 34 f2 d3 3f 5c 4c 55 3f 41 1b 8a 3c
       0.4678407 1.655829 0.8331964 0.016858699
0001b0 7b 17 25 3f 63 f8 8d 3e a0 95 e5 3e 35 e1 13 3d
       0.64488953 0.27728567 0.44840717 0.036103446
0001c0 8c 5a 48 3e b1 23 b8 bf 98 23 3f c0 44 28 8e 3f
       0.19565791 -1.4385892 -2.9865475 1.1106038
0001d0 27 7d 1a bf 64 8e 46 bf 00 d9 49 3f 40 dd 52 be
       -0.6034722 -0.7756102 0.7884674 -0.20592213
0001e0 78 1a 02 3f 27 ab c7 3f 3a 80 0f 3e 2a 48 a4 3f
       0.5082164 1.5599107 0.14013758 1.2834523
0001f0 c1 f4 49 bf 06 50 21 3e ba 0e 9a be 52 a5 f5 bf
       -0.7888909 0.15753183 -0.3008936 -1.9191077
000200 a0 f4 93 bf ae 64 d2 be d2 c9 0c 3f 37 23 58 bf
       -1.1559029 -0.41092438 0.54995453 -0.84428734
000210 00 c7 c7 bf 79 c9 96 bf 35 ec 55 c0 b4 f8 5c 3c
       -1.5607605 -1.1780235 -3.342542 0.01348703
000220 ae 70 a9 3f bb 7c 39 bf ff 6e 32 bf 52 65 c2 3f
       1.3237512 -0.7245595 -0.69700617 1.518717
000230 06 82 12 bf d3 e7 84 3f 71 bf c4 bf 2c 8f ab 3f
       -0.5722965 1.0383247 -1.5370923 1.3403068
000240 ab 75 45 3f 81 4f 4d bf 3a 90 15 bd 52 82 68 be
       0.7713267 -0.8019944 -0.0365145 -0.22705963
000250 f6 b6 21 3f fe 01 02 c0 73 2b 3c 3f 1b 5c 53 be
       0.631698 -2.0313716 0.735038 -0.20640604
000260 fd 9d 46 bf 4e b6 ae be 71 f2 1e bf 3c 12 8f 3c
       -0.7758482 -0.34123462 -0.62088686 0.01746475
000270 de 29 bd 3f c7 eb ac bf 7e e1 05 be 0b ba 0c 3f
       1.4778402 -1.3509454 -0.130743 0.5497138
000280 bb be d4 3e 73 d7 3f bf a8 54 31 3f c5 3d bf 3f
       0.41551766 -0.74938124 0.692698 1.4940726
000290 8e f5 82 bf 26 f3 4c bf ed 31 05 bd 03 9a 7a bf
       -1.0231187 -0.80058515 -0.032518316 -0.97891253
0002a0 75 6d 7d bf f6 a9 7b 3d ce 30 da 3e 5d 48 89 3e
       -0.98995143 0.061441384 0.4261536 0.2681302
0002b0 cd 42 fd bd 49 ce 15 bf cc c9 43 3f 8c 91 9c bf
       -0.12366257 -0.5851789 0.7647979 -1.2231917
0002c0 f9 e1 af bf 72 7c 65 3f 56 14 b8 3f 8d d9 14 40
       -1.3740836 0.89643013 1.4381206 2.3257782
0002d0 7f 8e 9a 3e 5a 0b d0 bf 8f 6f ad be 47 59 21 40
       0.3018684 -1.6253464 -0.33874175 2.521074
0002e0 cb e3 d8 3e de 85 59 bf 64 4d 6f 3f aa 86 5a 3f
       0.42361292 -0.8496989 0.93477464 0.8536173
0002f0 c6 b2 14 3e e2 32 9b 3f 3c 0d d7 3e ff b0 94 bf
       0.14521322 1.2124903 0.42002285 -1.1616515
000300 93 94 64 3f d6 73 47 3f e4 6b d3 bf 4f 5b 2b bf
       0.89289206 0.77911127 -1.6517301 -0.669362
000310 c3 de b3 bf 83 38 f9 3f 4e 8e a0 bf 02 0d 20 3f
       -1.4052356 1.9470371 -1.2543428 0.6251985
000320 64 d1 6b 40 df 02 b5 c0 b9 eb e9 3f b9 aa 1b c0
       3.6846552 -5.6566005 1.8275062 -2.432295
000330 05 93 0f bf 38 5f 0b 3f 31 52 f6 c0 39 a7 0d 3e
       -0.5608371 0.5444217 -7.697533 0.13833322
000340 14 54 18 c0 24 7c 69 bf 4f b7 20 c0 89 8f 04 40
       -2.3801317 -0.9120505 -2.5111883 2.0712607
000350 81 d1 41 40 96 dc 1c c0 c4 c4 80 40 83 25 cd bf
       3.028412 -2.4509635 4.0240192 -1.6027073
000360 9d d3 98 3f 0b 33 cd bf 05 77 5e c0 90 1b 96 c0
       1.1939579 -1.6031202 -3.4760144 -4.6908646
000370 d5 9e a1 c0 82 db 3d c0 38 66 00 bd b3 e8 1b 40
       -5.0506387 -2.9665227 -0.031347483 2.4360778
000380 6f ad 51 40 ac 29 01 c0 d2 8d 80 be 5b 25 96 c0
       3.2762105 -2.0181684 -0.251082 -4.69206
000390 a5 2f 86 bf be e0 b9 c0 77 3b 3c bf 56 fd c2 c0
       -1.048329 -5.8086843 -0.73528236 -6.093425
0003a0 df 1f 87 c0 5a 26 7c bf 5c 5e 3a 3f fe dd 2c c1
       -4.2226405 -0.9849602 0.7280023 -10.804197
0003b0 97 dd 1b c0 ab 25 bd 3f b6 51 c0 3f 6f 5a 6c 40
       -2.4353998 1.477712 1.5024936 3.6930196
0003c0 d1 24 63 bd 47 e0 3c c0 55 85 ca bf c6 a2 83 c0
       -0.055455033 -2.9511888 -1.582194 -4.11362
0003d0 c3 a6 51 c0 ea 6a a8 3f ae 8e b6 40 85 1c 5f bf
       -3.2758033 1.3157628 5.704917 -0.8715289
0003e0 bc 64 79 3f 39 88 15 c0 73 4d 05 40 4f 48 0c c0
       0.97419333 -2.3364394 2.0828521 -2.1919134
0003f0 e3 b0 1b 40 ef c2 a2 bf a5 80 b9 c0 d7 c6 93 40
       2.4326713 -1.2715739 -5.7969537 4.6180224

lstm.weight_hh_l1 f4 [400, 100]
000000 b4 ca df 3c 88 21 d7 bc c0 52 29 bc 80 52 41 bc
       0.027318336 -0.026261106 -0.010334671 -0.011799455
000010 8e 72 3a 3d 82 a4 c9 bd 1d f5 aa bd 6c 3e a8 3c
       0.045519404 -0.098458305 -0.08347533 0.020537578
000020 fa 95 65 3d cc d2 a7 bc ad de 8d 3d 20 9c ca bc
       0.056051232 -0.020486258 0.06927238 -0.02473265
000030 e5 17 88 bd d0 eb c2 bd 66 7a 54 3d ba 79 c7 bd
       -0.066451825 -0.09517634 0.05187454 -0.097400144
000040 85 8f a7 3d 07 91 8f 3d a4 de d1 3c 12 00 17 3d
       0.08181671 0.07010084 0.025618859 0.0368653
000050 00 ce 51 bb a0 93 fb 3b e2 e8 3c 3d 60 c0 14 bb
       -0.0032013655 0.0076775104 0.04612053 -0.0022697672
000060 c5 a7 8c bd c5 1a 98 3d 00 c8 ba 3c 8a 86 82 bd
       -0.06867937 0.07426981 0.022800446 -0.063733175
000070 c0 9b 0c bc a3 62 ca 3d 17 09 36 bd 80 b3 b0 bd
       -0.008582056 0.09882095 -0.044442263 -0.08627987
000080 9a 6b 98 bd 90 f4 49 3c 8a ea 8f bd 00 c8 3a bd
       -0.07442398 0.012326375 -0.07027157 -0.04560089
000090 26 ad 0b 3d 35 99 b7 3d a8 44 78 bc 8a df 1e bd
       0.034100674 0.08964769 -0.015153088 -0.038787402
0000a0 12 f2 5d 3d 13 1e 57 bd d6 af 4e 3d e2 77 a1 bd
       0.054185934 -0.052518915 0.05046066 -0.07884194
0000b0 13 ac 24 bd ca c6 71 3d 35 50 b3 bd 9a 0b 9c bd
       -0.040203165 0.05902747 -0.08755533 -0.076194
0000c0 49 e0 ab 3d 90 5e 63 3c dc f2 e6 3c d0 e9 a6 bd
       0.083923884 0.013877526 0.028191976 -0.08150065
0000d0 63 f5 ca bd d4 b1 d0 bc 32 3a 38 3d fe 0b 48 3d
       -0.09910085 -0.02547542 0.044977374 0.04883956
0000e0 63 23 a3 3d 76 7d 8f bd eb fa ae bd c2 31 04 3d
       0.07965734 -0.07006352 -0.085439526 0.032274015
0000f0 58 18 1b bc 8b 7e 85 3d ca bb 3e 3d ab 92 c3 3d
       -0.009466253 0.06518277 0.04656581 0.09549459
000100 3c 42 ee 3c 13 bc 90 3d ca 75 26 3d 73 4e 30 bd
       0.029084317 0.07067122 0.040639676 -0.043043565
000110 38 46 8d 3c 53 b1 82 3d ae a3 73 3d 60 96 6f bb
       0.017245397 0.06381478 0.05948227 -0.0036558136
000120 bd 2c 4f bd d5 f2 9c 3d bf 71 a2 3d 20 b9 b3 bd
       -0.050579775 0.07663504 0.079318516 -0.08775544
000130 10 4c 6e bc e0 e3 c9 bc 78 b8 b6 bc 13 87 c1 3d
       -0.014544502 -0.024644792 -0.022304758 0.094495915
000140 8b 26 c4 3d 39 9b ad 3d c3 2b 9b 3d 67 79 88 3d
       0.09577664 0.08476872 0.07576706 0.06663781
000150 74 25 8b bc d8 68 3e 3c 63 01 b9 bd 68 11 48 bc
       -0.016985632 0.011621676 -0.090334676 -0.012211181
000160 f0 98 5a bd 0c 43 a8 3c 45 de a6 bd 97 f1 b3 bd
       -0.05336851 0.020539783 -0.08147863 -0.08786314
000170 a3 5e 45 bd 00 33 d1 bc 14 a1 02 bd 51 be c0 3d
       -0.048185956 -0.025537014 -0.031891897 0.094113
000180 18 3b 06 bc 49 b3 88 3d 2a ba 31 3d 40 06 1b bb
       -0.0081928 0.06674821 0.04339043 -0.0023654848
000190 28 f6 72 3c d5 35 c8 3d 5e 5b 95 bd 5a 07 4f bd
       0.014829196 0.09775893 -0.072928175 -0.05054412
0001a0 83 aa a3 3d 9a 69 54 3d 80 5f 9b 3c e4 39 08 bd
       0.07991507 0.051858522 0.018966436 -0.033258334
0001b0 17 7f 40 bd d8 63 93 bd f7 9c 40 bd 26 54 1c 3d
       -0.046996202 -0.07196778 -0.047024693 0.038166188
0001c0 ac e1 98 bc 2b 4f b3 bd 40 97 03 3b d0 c3 c5 bb
       -0.018662296 -0.087553345 0.0020079166 -0.0060353056
0001d0 50 64 ae bd 80 79 8f 3a b8 85 97 bc 7d 32 85 3d
       -0.08515227 0.0010946244 -0.01849638 0.065037705
0001e0 42 f0 af bd ca be b1 bd 7a f3 0f 3d d2 0f ad bd
       -0.085907474 -0.08678968 0.035144307 -0.08450283
0001f0 84 e4 d6 3c a8 34 96 3c a7 48 71 bd 80 94 12 bd
       0.026232012 0.018335655 -0.058907177 -0.035786152
000200 46 82 a7 bd f4 a0 99 3c 4a 37 02 3d 9a 61 a6 bd
       -0.081791446 0.018753506 0.03179101 -0.08124085
000210 7a 6e 2e 3d a0 6f c0 bd 21 28 b7 3d b0 86 00 bc
       0.042585827 -0.09396291 0.08943201 -0.007844612
000220 b8 11 a5 bc c0 82 14 3b 20 66 8a bb 1f a2 c8 bd
       -0.02015005 0.002266094 -0.0042236 -0.09796547
000230 1b 76 b9 3d e3 2b 61 bd 98 33 a0 bd bd 69 93 3d
       0.0905573 -0.054973494 -0.07822341 0.07197902
000240 90 ea 24 bd da fc 52 bd 60 0f f1 3b 34 5a ce 3c
       -0.04026276 -0.05151067 0.007356569 0.025189497
000250 37 d4 b6 bd 21 f3 a1 3d 6a be 3d 3d b0 ef 21 bd
       -0.089271955 0.07907701 0.04632417 -0.039535224
000260 83 48 7e bd 3a b4 ab bd 1b ef 9f bd 59 28 94 3d
       -0.06208087 -0.08383985 -0.078092776 0.07234258
000270 68 b0 e9 bc 88 20 97 3c 58 ab 14 bc c9 78 ae 3d
       -0.0285265 0.01844813 -0.009074055 0.08519132
000280 51 28 85 3d c8 c9 b2 bc 79 8f b7 3d 50 b1 9e bd
       0.0650183 -0.021824732 0.08962912 -0.077486634
000290 53 e5 91 3d 36 ea 42 3d 0d 58 71 bd 18 c4 29 bc
       0.07123818 0.047586642 -0.058921862 -0.010361694
0002a0 32 16 00 3d 4c 1c 83 3c 62 10 66 3d b2 fd 08 3d
       0.031271167 0.016004704 0.056167968 0.033445068
0002b0 98 a2 6c bc e6 ea 02 bd a3 0b 23 bd 06 31 95 bd
       -0.014443062 -0.031962298 -0.03980602 -0.07284741
0002c0 e0 d1 ad bc 29 61 aa 3d 18 e4 5e bc d5 78 99 bd
       -0.02121824 0.08319313 -0.0136041865 -0.0749375
0002d0 a3 94 99 bd b5 46 b8 3d d0 9b 55 3c 84 4e 14 bd
       -0.07499053 0.08997861 0.013037637 -0.03620769
0002e0 30 82 04 3c ec 64 a7 bc db 0d c1 bd 34 de fa bc
       0.00808768 -0.020433865 -0.09426471 -0.030623533
0002f0 02 49 79 3d 69 99 95 3d f7 40 63 bd a0 6f 64 bb
       0.06086064 0.07304651 -0.055481877 -0.0034856573
000300 22 18 bb bd 93 2e ba bd e2 4e ba bd f3 00 b8 bd
       -0.09135462 -0.090909146 -0.09097077 -0.08984556
000310 7d 69 2a bd f0 81 73 3c 2c d5 89 3c 08 8b 8e bc
       -0.041604508 0.0148625225 0.016825281 -0.01740028
000320 cc e6 e2 3c f0 71 4a bc a0 72 99 bb ca 75 c3 bd
       0.027697943 -0.012356266 -0.004682854 -0.09543951
000330 b5 37 93 bd 5d e6 ab bd 6f 8c 8d 3d d8 07 6e bc
       -0.0718836 -0.08393548 0.06911551 -0.014528237
000340 90 87 8e bd f9 fb 80 3d b0 9a 19 bc 30 8e 37 3c
       -0.0695945 0.0629806 -0.009375259 0.011203334
000350 12 0a 37 3d 0c ed b3 3c 06 d9 87 bd 42 cc 54 3d
       0.04468734 0.021963619 -0.06633191 0.051952608
000360 bf 24 aa 3d 9b c0 ac 3d 2a 97 5a 3d 26 5d 8e bd
       0.0830779 0.08435174 0.053366818 -0.069513604
000370 ec 84 ed 3c ea b5 6d bd 5e 25 ac bd d0 24 4d bd
       0.028994046 -0.058034815 -0.08405565 -0.050083935
000380 56 d1 53 3d b0 ff 82 bb 4d e6 ac 3d c9 da 88 3d
       0.05171331 -0.0039977655 0.08442364 0.06682355
000390 7d 9e 3f bd 1d f9 1d bd b1 00 a7 3d e2 06 72 3d
       -0.046782006 -0.03856765 0.08154429 0.059088595
0003a0 a2 81 57 3d c5 e7 bc 3d c2 e1 2b 3d 91 70 c9 3d
       0.05261386 0.09223894 0.041963346 0.098359235
0003b0 87 d9 c7 bd dc d0 f2 3c aa 6c 5c 3d 37 fd 9d 3d
       -0.09758287 0.029640608 0.053814568 0.077143125
0003c0 00 68 2d 3b f5 f2 ab 3d a8 3a c0 bd 14 bb b7 bc
       0.0026459694 0.0839595 -0.09386188 -0.022428073
0003d0 9a 7e 23 3d 64 64 f1 3c 0b ec 9f 3d d1 71 82 3d
       0.03991566 0.029466815 0.078086935 0.06369365
0003e0 23 4a 36 bd 43 b2 5e bd 97 f4 3a bd 8f 84 ca bd
       -0.044504296 -0.054369222 -0.045643415 -0.09888565
0003f0 a6 37 1e 3d c0 9b ca bd 80 4e fc bc 48 5c 80 3c
       0.03862729 -0.09892988 -0.03079915 0.015669003

lstm.bias_ih_l1 f4 [400]
000000 46 4c 08 c0 0f 4f 89 3f 82 f5 42 40 e7 c1 43 be
       -2.1296554 1.0727252 3.0462346 -0.19116937
000010 c6 40 5b 40 27 9d a2 be ba db 2f bf 70 88 cd bf
       3.4258285 -0.31760523 -0.6869465 -1.6057262
000020 66 bd bc be 32 55 08 40 3e 46 0e be 59 5a 7e 40
       -0.3686325 2.1302 -0.13893983 3.9742644
000030 d6 5f 12 c0 d2 2f 7e bf c7 20 6b 3f 57 c1 b3 be
       -2.2870994 -0.9929172 0.9184689 -0.35108444
000040 fc df 74 40 12 4e 21 3f 57 d4 f2 3f b2 49 c1 3f
       3.826171 0.6300975 1.8971051 1.5100615
000050 c0 97 1a 3f 26 ce 97 be 09 84 18 40 64 d5 8e 3f
       0.603878 -0.29649466 2.3830588 1.1158872
000060 86 fd dd 3f 34 59 32 3e 2f a6 33 c0 1b 3b 9a 3f
       1.7342994 0.17416841 -2.807018 1.2049288
000070 70 78 04 c0 c8 cb df bf b2 38 8f bd e6 59 4c c0
       -2.069851 -1.7484064 -0.06993236 -3.192987
000080 10 60 0b 40 49 8c 3d 40 8f b5 c0 bf 3e c7 ba bf
       2.1777382 2.9616873 -1.5055407 -1.4592054
000090 df f5 9d be e1 b3 9b 3e 28 5a 8b 3f d3 13 0a bf
       -0.30851647 0.30410674 1.0886889 -0.539365
0000a0 fe 8e 5d 40 16 85 d7 bf f1 d5 52 40 32 d7 fc 3f
       3.4618526 -1.683749 3.294308 1.9753172
0000b0 1f eb 5d c0 f0 99 3d c0 da 7d 10 c0 63 b3 ef bf
       -3.4674757 -2.9625206 -2.2576814 -1.872662
0000c0 10 a2 07 40 9d e4 41 be f5 aa 87 40 fb 2a 21 40
       2.1192665 -0.18934865 4.239619 2.5182483
0000d0 8e 6b 6f 3d e4 c9 03 c0 33 7d 2f 3f f1 fe 5c 40
       0.05845218 -2.0591974 0.68550414 3.4530604
0000e0 8c fc 26 c0 ae bc eb 40 2f 15 2c 3f 20 d7 94 bf
       -2.6091642 7.366782 0.67219824 -1.1628151
0000f0 d2 44 f5 bf b5 40 5d bf 04 3c b6 be 70 8f 8b bf
       -1.9161627 -0.8642686 -0.35592663 -1.0903149
000100 05 a6 ca 3e e6 d0 42 40 25 42 1f c0 95 77 f3 be
       0.39579788 3.0440001 -2.4884121 -0.4755217
000110 8d fb ef 40 2e 5a 14 bf 6d 4f b7 be bf f0 04 3d
       7.499457 -0.57950103 -0.35802785 0.032456156
000120 a8 36 20 40 a2 96 07 3f 1f ae 0f c0 80 2a 56 40
       2.503336 0.5296422 -2.2450025 3.346344
000130 be b4 a8 40 9a a0 33 c0 67 40 31 40 ca 56 8a 3f
       5.2720633 -2.8066773 2.7695558 1.0807736
000140 29 8a ca 40 98 bb 2b c0 24 44 af 3f da d0 e6 bd
       6.3293653 -2.6833248 1.369267 -0.11270304
000150 27 da bd bf e6 a7 1c bf de fd 21 40 40 16 22 c0
       -1.48322 -0.6119369 2.5311198 -2.532608
000160 39 f1 21 40 2f 5e 87 bf 1f 17 2d c0 70 0e a6 38
       2.530348 -1.0575618 -2.7045362 7.918186e-05
000170 e2 74 cb bf be c4 a9 bf 6f c4 35 40 aa 69 fa bf
       -1.5895045 -1.3263166 2.8401144 -1.9563496
000180 bc 38 a6 40 03 f6 d1 40 7d e4 33 bf 72 f6 ca bf
       5.1944256 6.5612807 -0.7027052 -1.5856459
000190 a0 71 3e bb 02 5b 55 3d ed f0 44 bd 53 66 ba 3d
       -0.0029059425 0.052088745 -0.048081327 0.09101548
0001a0 83 1d 50 bd b0 7d 80 3b 07 21 70 bd 72 3d 7d 3d
       -0.050809395 0.003921233 -0.058625247 0.061826177
0001b0 e3 b7 40 bd 34 bf 87 3c 57 c3 ae bd fb 11 b9 3d
       -0.047050368 0.016570665 -0.08533352 0.090366326
0001c0 ec 73 c0 3c 58 a0 a9 bd b0 d4 86 bb a4 5d f7 3c
       0.023492776 -0.08282536 -0.00411471 0.030196019
0001d0 9c 2e 06 bd 8c f8 ef 3c a6 70 66 3d 32 28 77 3d
       -0.032759294 0.029293321 0.056259774 0.060341068
0001e0 2a ec 17 3d f4 45 a0 bc ee 38 05 3d fa 02 05 3d
       0.037090458 -0.019564606 0.032524996 0.03247354
0001f0 cc 28 9d bc d9 11 89 3d 32 16 07 3d 90 af 1b bd
       -0.019184493 0.06692857 0.03298015 -0.038009226
000200 fd 60 a1 bd 03 31 23 bd aa 4b 23 3d be 6c 97 bd
       -0.07879827 -0.039841663 0.03986708 -0.07393788
000210 1a 79 9f bd 88 85 99 3c b0 3c 53 bc a2 27 88 bd
       -0.0778677 0.01874043 -0.012892887 -0.06648184
000220 3d 85 ac 3d 70 f9 b9 bd 82 02 11 3d 50 e2 9b 3b
       0.08423851 -0.090807796 0.035402782 0.004757203
000230 5d 71 8f bd c4 97 e4 3c bd cd 8c 3d cd bd 6d bd
       -0.07004044 0.027904399 0.06875179 -0.058042336
000240 5d b1 be 3d 32 c7 90 bd a6 5e 07 bd b0 52 47 3c
       0.09311173 -0.070692435 -0.03304925 0.01216571
000250 7b 7d ca bd 67 aa be bd 11 ed b7 3d 4b 3d b1 bd
       -0.09887215 -0.093098454 0.08980764 -0.08654269
000260 1b 96 94 bd c0 22 28 3c 03 db 96 bd c0 2f 69 3c
       -0.07255193 0.010262191 -0.07365992 0.014232576
000270 c8 7a 99 bd c3 4d 61 bd b0 d5 c2 3b cc 2c 87 bc
       -0.07494122 -0.0550058 0.0059458837 -0.016500853
000280 10 11 05 3c 70 a6 0b 3c 22 1d 06 3d b8 68 92 3c
       0.008121744 0.0085235685 0.032742627 0.0178722
000290 a1 51 85 3d 90 8a 13 bd 5f c0 a8 3d 80 57 95 3c
       0.0650971 -0.036020815 0.08239817 0.0182302
0002a0 c0 05 85 3c 98 ca b0 bc 70 4c 90 bd 97 49 5d bd
       0.016238093 -0.02158098 -0.07045829 -0.05402526
0002b0 18 84 9d 3c 30 84 35 bd f0 88 4b 3c 46 dc 2e 3d
       0.019228026 -0.044315517 0.012422785 0.042690538
0002c0 e0 a6 b9 3b e1 b1 b8 3d 20 7f 98 bb 8d 02 59 bd
       0.005665645 0.09018303 -0.0046538264 -0.05298095
0002d0 eb 7d 9f 3d 42 f9 6d 3d 14 fd a9 3c 60 55 5b bb
       0.07787689 0.05809904 0.02075056 -0.0033467636
0002e0 df 28 8d 3d a8 b4 2f 3c eb 1d 95 3d 00 f1 5e ba
       0.06892561 0.010724224 0.07281097 -0.000850454
0002f0 69 63 a8 3d 0a c4 73 3d b9 d6 97 3d 97 92 8f 3d
       0.08222086 0.05951313 0.07414002 0.07010382
000300 10 77 36 bd c0 f4 a8 3a 37 37 2f bd 35 f7 b2 3d
       -0.04454714 0.0012890324 -0.042777266 0.08738557
000310 0a 72 be bd d3 00 27 bd 1d 96 6f bd 00 e5 ba bd
       -0.09299095 -0.04077227 -0.05849277 -0.091257095
000320 e9 f8 81 bf 91 d3 f6 bf 08 a8 9d be fc 5e ce bf
       -1.0154086 -1.9283315 -0.3079226 -1.6122737
000330 4c 95 b4 bf d4 6e 67 3f 22 ba ad 3e 90 f0 28 bf
       -1.4108062 0.90403485 0.3393107 -0.6599207
000340 ce 78 35 40 06 c6 44 c0 df 7f 96 3e 81 7e ef bf
       2.8354983 -3.0745864 0.29394433 -1.8710481
000350 c5 56 94 3f 48 90 78 3f 3b fc 17 c0 0f 7b 06 40
       1.158898 0.97095156 -2.37477 2.101261
000360 54 a7 4d c0 05 b5 31 40 3b a4 8e be a1 a7 47 c0
       -3.213338 2.7766736 -0.27859673 -3.1196063
000370 6e ec 2f 3f 22 45 0e 40 ad b8 00 c0 73 14 2e bf
       0.6872014 2.2229695 -2.0112717 -0.67999953
000380 02 b9 cc 3f 9a e6 33 c0 4e f0 1e c0 97 f1 f7 be
       1.599396 -2.8109498 -2.483417 -0.48426506
000390 79 6d f0 bf e5 a4 e3 3f 91 22 96 3e 71 cd fa 3f
       -1.8783408 1.7784697 0.29323247 1.9593946
0003a0 f6 7f 92 3d 5a 8c 2f 3f 2c 49 06 c0 6a 03 1b bf
       0.07153313 0.68573534 -2.098216 -0.60552084
0003b0 72 24 a5 bf dc 2e 5a 3e 71 7e c6 bf dc 2c 91 bf
       -1.2901747 0.21306938 -1.5507337 -1.1341815
0003c0 22 73 09 bf c4 f3 6b 3f 80 35 f3 be 47 ae 90 bf
       -0.53691304 0.9216883 -0.47501755 -1.1303185
0003d0 2e a1 8b 3d 63 01 9a bf 2d cd f1 3c 19 a3 49 bf
       0.06817852 -1.2031673 0.02951678 -0.7876449
0003e0 8c 80 ac bf c4 51 cb 3f 84 1c 84 3e f4 ad d5 be
       -1.3476729 1.5884328 0.25803006 -0.41734278
0003f0 f7 19 17 c0 2b f0 43 3f 18 2d 41 c0 7b 8d 00 3e
       -2.3609598 0.7653834 -3.0183773 0.1255397
